saved_checkpoints/checkpoint-780.pth (torch, 55909 bytes, 6 tensors)

fc1.weight f4 [128, 37]
0	0x3ba48dd1	0.0050217886
1	0x3d836207	0.064151816
2	0xbd8cc283	-0.06873038
3	0xbd4db1fd	-0.05021857
4	0xbb34226d	-0.002748634
5	0x3e020024	0.12695366
6	0xbd193364	-0.037402526
7	0x3e5e5f03	0.21715932
8	0xbe178100	-0.14795303
9	0x3abf8c58	0.0014613969
10	0xbc15ee12	-0.009150999
11	0xbc133e98	-0.0089870915
12	0xbdd24400	-0.10266876
13	0xbe20c5de	-0.1570048
14	0xbd6ee0f7	-0.058320012
15	0x3c652bf9	0.013987535
16	0x3d888607	0.06666189
17	0x3e1361e8	0.14392817
18	0xbd7f0535	-0.062260825
19	0x3b362072	0.0027790335
20	0x3e09507e	0.13409612
21	0x3e0a1b77	0.1348704
22	0xbcade256	-0.02122609
23	0x3e06c0c8	0.13159478
24	0xbd8373cc	-0.06418571
25	0xbc3f347f	-0.011670231
26	0x3e299dee	0.16564152
27	0xbd60c216	-0.054872595
28	0xbd964483	-0.07337286
29	0x3bf7addd	0.007558568
30	0xbd85ca06	-0.065326735
31	0x3e3ec5d2	0.1863015
32	0xbccabf61	-0.02474946
33	0xbdbd33db	-0.09238406
34	0xbde670cc	-0.11251983
35	0xbdf7f6b2	-0.121076
36	0xbda6cbfd	-0.081443764
37	0x3e441b30	0.19150996
38	0x3ce8af10	0.028403789
39	0x3d22a753	0.039710354
40	0x3cb22868	0.021747783
41	0xbdd0e4b0	-0.10199869
42	0xbcb8d7d9	-0.022563862
43	0xbe3235c1	-0.17403318
44	0xbd972a3c	-0.073811024
45	0xbd9027be	-0.0703883
46	0x3da744e1	0.081674345
47	0x3d924273	0.071415804
48	0xbcdecf5b	-0.027198484
49	0xbc6800c8	-0.0141603425
50	0x3d1ec8d8	0.03876576
51	0x3ddd3301	0.10800744
52	0x3db47b22	0.08812548
53	0x3c536a93	0.012903827
54	0x3d9e52c6	0.077306315
55	0xbdeace01	-0.114650734
56	0xbd851418	-0.06497973
57	0xbe416953	-0.18887834
58	0xbdac1bf2	-0.08403768
59	0xbc93384a	-0.017971177
60	0x3afd6c11	0.0019334574
61	0x3c308b85	0.010775452
62	0xbdc5aeb8	-0.096524656
63	0x3d4f25f9	0.050573323
64	0x3dcd1b78	0.10015005
65	0xbda6a30c	-0.081365675
66	0xbde90cd7	-0.11379402
67	0xbd488af3	-0.048960637
68	0x3e161910	0.14657998
69	0x3e4482b4	0.19190484
70	0xbdd409f0	-0.10353458
71	0xbd8f131e	-0.06986068
72	0x3c5edf1b	0.013602997
73	0x3e0efa5b	0.1396269
74	0x3dbc204c	0.09185848
75	0x3e4b1c49	0.19835009
76	0x3d5a6590	0.053319514
77	0xbd9bcbd4	-0.076072365
78	0xbd22527d	-0.03962945
79	0xbe661939	-0.22470559
80	0xbda1a76f	-0.078932635
81	0x3e718bb6	0.23588452
82	0x3d7c35f4	0.06157489
83	0xbe285891	-0.16440035
84	0x3d0c7f2a	0.03430096
85	0xbc78dcff	-0.015189408
86	0xbd613941	-0.054986242
87	0x3c305687	0.010762817
88	0x3e147cd5	0.14500745
89	0xbd8cab0b	-0.06868561
90	0x3dc21c85	0.09478096
91	0x3dae3136	0.0850548
92	0x3dcdd7b4	0.10050908
93	0x3bccc985	0.006249609
94	0xbe1bd9a1	-0.15219738
95	0xbd4e6f4c	-0.05039911
96	0x3de91cd3	0.11382451
97	0x3c1f15e7	0.009709812
98	0xbd74d9f7	-0.05977818
99	0xbe3ca550	-0.18422437
100	0x3e1bb48e	0.15205595
101	0x3e5c9cc7	0.21544181
102	0xbdcc7114	-0.099825054
103	0xbe33d246	-0.17560682
104	0xbe45fd53	-0.19334917
105	0x3d00a9a2	0.031411774
106	0xbd83342f	-0.064064376
107	0xbe049253	-0.12946443
108	0x39d7d9d6	0.00041170296
109	0x3cc64006	0.02420045
110	0xbc88d9e1	-0.016705455
111	0x3e6ba078	0.23010433
112	0xbdd39216	-0.10330598
113	0x3d83c602	0.06434251
114	0x3cd2e5a0	0.02574426
115	0xbeb48939	-0.35260943
116	0xbcdb6d91	-0.026785644
117	0x3cbe168c	0.02320411
118	0x3cdaba16	0.02670006
119	0x3d71c499	0.05902538
120	0x3dd6ab5c	0.10481903
121	0x3baf3b86	0.005347672
122	0xbc9fe0ff	-0.019516466
123	0x3d1f0de0	0.03883159
124	0xbda6ad79	-0.08138556
125	0xbd860251	-0.065434106
126	0x3d8089ff	0.06276321
127	0xbda7ed0a	-0.081995085
128	0xbe58e281	-0.21180154
129	0xbe1264d9	-0.14296283
130	0xbef04d8a	-0.46934158
131	0x3cbb72c8	0.02288188
132	0xbc511bb9	-0.012762957
133	0xbbc7c42a	-0.0060963826
134	0x3d8258eb	0.06364616
135	0x3d1625b1	0.03665704
136	0xbd75bb8e	-0.05999332
137	0x3e16f402	0.14741519
138	0x3d4e0fd3	0.05030806
139	0x3db6eddb	0.08932086
140	0x3e07f7d6	0.13278136
141	0x3ccf8c31	0.025335403
142	0x3df4092a	0.119158104
143	0x3db3557d	0.0875654
144	0x3cfffda3	0.031248873
145	0xbdcd2e42	-0.100185886
146	0x3c90010e	0.017578628
147	0x3a7687f5	0.00094044144
148	0xbdb5461f	-0.08851265
149	0xbe2df706	-0.16988763
150	0xbe19e838	-0.1502999
151	0xbe131ca2	-0.14366391
152	0xbd44d82b	-0.048057716
153	0x3d5e17be	0.05422186
154	0x3d96da5c	0.073658675
155	0xbdd1357c	-0.102152795
156	0x3d5cce25	0.053907532
157	0x3db826a8	0.08991748
158	0xbb000d5d	-0.0019539215
159	0xbd904066	-0.07043533
160	0xbdac5131	-0.084139235
161	0xbd9ca3e3	-0.076484464
162	0xbdf148b2	-0.11781444
163	0xbe0690ca	-0.1314117
164	0xbd98f53c	-0.0746865
165	0xbc5049cb	-0.012712906
166	0xbda1805e	-0.07885812
167	0x3d3254e1	0.043537978
168	0xbdf51619	-0.119671054
169	0xbdb226fb	-0.08698841
170	0x3dfbc24d	0.12292919
171	0xbd823da4	-0.06359413
172	0x3e133fd4	0.14379817
173	0x3d6e46bc	0.058172926
174	0xbe3348f3	-0.17508297
175	0x3d4ff602	0.05077172
176	0x3c3922c2	0.011299791
177	0x3c2897ee	0.010290129
178	0x3df52b88	0.119711936
179	0xbe0b2b57	-0.13590752
180	0xbbfbaa34	-0.007680202
181	0xbd4b04a3	-0.04956497
182	0x3e7cf221	0.2470174
183	0x3cf785fd	0.030215258
184	0x3dbec4b3	0.09314861
185	0x3d55dbda	0.05221162
186	0xbd574037	-0.052551474
187	0x392a09cb	0.00016216112
188	0xbdfe177e	-0.124068245
189	0x3dac9039	0.08425946
190	0x3e2a17d7	0.16610657
191	0x3d972e40	0.07381868
192	0xbe092350	-0.13392377
193	0xbcd7a918	-0.026325747
194	0xbed93fa9	-0.4243138
195	0xbd5cbf2a	-0.053893246
196	0xbdb2a4c0	-0.0872283
197	0x3d1e6e6e	0.038679533
198	0xbe0dc93d	-0.13846298
199	0xbbf403aa	-0.007446726
200	0x3bdd756e	0.0067583835
201	0x3d8080a9	0.0627454
202	0xbdec5ac7	-0.11540752
203	0xbdbeab87	-0.0931006
204	0xbd9ca279	-0.07648177
205	0x3e2fdb92	0.17173603
206	0xbd87a43c	-0.06623122
207	0x3d9963bc	0.07489726
208	0x3d4b6b13	0.04966266
209	0xbd51670b	-0.05112366
210	0xbc397f47	-0.011321849
211	0xbd914443	-0.07093098
212	0x3d1656aa	0.036703743
213	0x3c82e82a	0.015979845
214	0xbc2f62c2	-0.010704698
215	0x3d75b92c	0.059991047
216	0xbe23768e	-0.15963194
217	0xbdca7d94	-0.098872334
218	0x3dc55e59	0.09637136
219	0xbe9b2a5c	-0.30305755
220	0x3c92e30a	0.017930526
221	0x3e18bf94	0.14916831
222	0x3da39923	0.07988193
223	0xbcd4ce23	-0.0259772
224	0xbd6cb51a	-0.0577899
225	0x3db82fcd	0.08993492
226	0xbe070770	-0.13186431
227	0xbc950edd	-0.018195564
228	0xbda4cdd5	-0.08047072
229	0x3d00ac26	0.031414174
230	0x3d7eeee3	0.06223954
231	0x3d3ed8ce	0.04659348
232	0x3d4dd0a2	0.050247796
233	0x3df59be8	0.119926274
234	0x3db47dc8	0.08813053
235	0x3c11303a	0.008861596
236	0x3d624aa4	0.055246964
237	0xbdb2fb21	-0.08739305
238	0xbd6c7777	-0.057731118
239	0x3d626026	0.055267476
240	0x3dc0b299	0.09409065
241	0x3e2d33d5	0.16914304
242	0xbd6a9626	-0.0572721
243	0x3d206d62	0.039166816
244	0x3df37202	0.1188698
245	0xbe09e3fa	-0.13465872
246	0x3d40d2bf	0.047075983
247	0xbe21e1bc	-0.15808767
248	0x3c40b0e5	0.011760925
249	0xbb9aeefc	-0.004728196
250	0xbc383449	-0.0112429345
251	0x3d520549	0.05127457
252	0x3e7cd383	0.2469006
253	0xbdc0b20d	-0.094089605
254	0xbe630f0b	-0.22173707
255	0xbda2dbf2	-0.079521075

fc1.bias f4 [128]
0	0x3d000dfc	0.031263337
1	0x3d579d32	0.052640148
2	0xbd018f96	-0.031631075
3	0xbcf60658	-0.030032322
4	0xbd1939b8	-0.03740856
5	0xbda06204	-0.07831195
6	0x3e02441c	0.12721294
7	0x3e34cd77	0.17656504
8	0xbe25823c	-0.16162962
9	0x3e0bc02b	0.13647525
10	0xbd96b014	-0.07357803
11	0xbd210ec8	-0.039320737
12	0xbd05c462	-0.03265799
13	0x3c869a69	0.01643105
14	0xbd7e53ae	-0.062091522
15	0x3d190cf9	0.037365887
16	0x3df88ccc	0.1213623
17	0xbd759a0f	-0.059961375
18	0x3b9397d1	0.004504182
19	0x3d8aefdd	0.067840315
20	0xbb42182b	-0.0029616456
21	0x3d86a5a1	0.0657456
22	0x3e5cfde2	0.21581224
23	0xbc4616f1	-0.012090431
24	0x3d8f2c3a	0.069908574
25	0x3e3d0b3a	0.18461314
26	0x3e6192c3	0.22028641
27	0xbd052c55	-0.03251298
28	0xbcc87099	-0.024467753
29	0xbda7966d	-0.08182988
30	0x3e110853	0.14163332
31	0x3e1bf8f4	0.15231687
32	0xbd8b25b4	-0.06794301
33	0x3dc60770	0.09669387
34	0x3e0322b7	0.12806211
35	0xbe155dc4	-0.1458655
36	0x3e11cc40	0.14238071
37	0x3e0b225d	0.13587327
38	0x3d029741	0.03188253
39	0x3d971733	0.07377472
40	0x3dbaab26	0.09114675
41	0x3e4f476f	0.20242094
42	0x3e38dac5	0.18052204
43	0x3da1b40b	0.078956686
44	0x3d40df8e	0.0470882
45	0xbd3677cf	-0.044547852
46	0x3dcac4d3	0.099008225
47	0xbd69d2df	-0.057085868
48	0xbe1d92d2	-0.15388039
49	0x3e36d0a6	0.1785303
50	0x3cff0f9f	0.031135378
51	0x3d75b427	0.05998626
52	0x3dbff178	0.093722284
53	0x3da46616	0.08027284
54	0x3e06036c	0.13087243
55	0x3e168aaf	0.14701341
56	0xbdc68ebe	-0.09695195
57	0xb90fc3bf	-0.00013710464
58	0x3d6776b7	0.0565097
59	0xbd69ac58	-0.057049125
60	0xbde4b745	-0.111677684
61	0x3daed422	0.08536555
62	0x3e25669e	0.16152427
63	0xbd2cdb07	-0.04220107
64	0x3e1644c3	0.14674668
65	0x3d894ca2	0.0670407
66	0x3ddfac76	0.10921566
67	0xbce16098	-0.02751188
68	0xbe0bdfc7	-0.13659583
69	0xbc9c564f	-0.019084124
70	0x3d683fcb	0.056701463
71	0xbd6a2a6c	-0.057169363
72	0x3e31cab9	0.17362489
73	0xbe0a84f3	-0.13527279
74	0xbd7a36ef	-0.061087545
75	0x3c285cf3	0.010276067
76	0x3e802147	0.2502539
77	0xbdbcb10b	-0.09213456
78	0x3dcc566c	0.09977421
79	0x3dd588f9	0.10426516
80	0x3d1253e6	0.035724543
81	0x3e195fc1	0.14977933
82	0x3e28e9aa	0.16495386
83	0xbce0aeba	-0.027427066
84	0x3d1bcb7e	0.038035862
85	0x3e23e065	0.16003568
86	0x3e049321	0.1294675
87	0xbdb0b428	-0.08628112
88	0x3d2b71b7	0.041856494
89	0x3e21ed82	0.15813258
90	0x3dd26133	0.102724455
91	0xbc595de7	-0.013267017
92	0xbd91d35d	-0.071203925
93	0xbe06f2ca	-0.13178554
94	0xbccb1ab7	-0.024793012
95	0x3dc46d29	0.09591133
96	0x3c91fb59	0.017820047
97	0xbe39f7b4	-0.18160897
98	0x3cc211c2	0.023690108
99	0x3e4f6b36	0.20255741
100	0xbd91bc79	-0.071160264
101	0xbe1dfcaa	-0.15428415
102	0x3e19e270	0.15027785
103	0x3e1e10ac	0.15436047
104	0xbe0b19c8	-0.13584054
105	0xbe09a876	-0.13443169
106	0x3bbc89d4	0.005753735
107	0x3e32a91e	0.17447326
108	0xbdfa1df5	-0.12212745
109	0x3d7c87ce	0.06165295
110	0x3e22526c	0.15851754
111	0xbccbcadb	-0.024877002
112	0xbd76a040	-0.06021142
113	0xbd6cb963	-0.057793986
114	0x3ce8fb7b	0.028440228
115	0x3e2ca019	0.16857947
116	0x3dd7337a	0.10507865
117	0x3e3424de	0.17592189
118	0x3d65a449	0.056064878
119	0xbd563348	-0.052295
120	0x3d3f550d	0.04671197
121	0x3df8afa4	0.12142876
122	0x3b76ef73	0.0037679344
123	0xbe2a5a7c	-0.1663608
124	0x3c98cee4	0.01865334
125	0x3e032054	0.12805301
126	0x3e2234e2	0.15840486
127	0x3c9cbfa7	0.019134356

fc2.weight f4 [64, 128]
0	0xbd97a274	-0.07404032
1	0xbd1025e2	-0.035192378
2	0xbd5a7411	-0.053333346
3	0x3e7348b6	0.23758206
4	0x3d89c65e	0.06727289
5	0xbcf2b942	-0.029629353
6	0x3df4892f	0.11940228
7	0x3d9217ad	0.07133422
8	0x3ce540a5	0.027984926
9	0x3d8e1505	0.06937603
10	0x3dd8bc43	0.10582783
11	0xbd86484f	-0.065567605
12	0x3dca3e53	0.09875169
13	0xbd0fb288	-0.03508237
14	0xbd825840	-0.063644886
15	0x3c83aeae	0.016074505
16	0x3bfb8bca	0.0076765763
17	0xbdcfa3d0	-0.10138667
18	0xbd79ad27	-0.060956147
19	0xbd95a479	-0.07306761
20	0x3dabbe2e	0.08385883
21	0x3d4026cc	0.046912
22	0xbd29ff73	-0.04150338
23	0x3cabc202	0.020966534
24	0xbd11329a	-0.035448648
25	0x3de86dfb	0.11349102
26	0xbc01d271	-0.007923708
27	0xbb46ea9e	-0.0030352245
28	0xbe61f4a3	-0.22065978
29	0x3e00ecde	0.12590358
30	0xbd2ceb2c	-0.042216465
31	0x3d2d58eb	0.042321127
32	0x3e09364c	0.13399619
33	0x3c378f47	0.011203594
34	0x3c4f4190	0.012649909
35	0xbd0e544c	-0.03474836
36	0x3d9d5131	0.07681502
37	0x3ceb8ab1	0.028752657
38	0x3e326791	0.1742232
39	0xbd896c9d	-0.067101695
40	0xbdabcc46	-0.083885714
41	0xbd489336	-0.048968516
42	0xbdd9b694	-0.10630527
43	0x3e19f45e	0.15034625
44	0x3d238e20	0.039930463
45	0xbc94553d	-0.018107051
46	0x3c487922	0.012235912
47	0xbddabccf	-0.10680544
48	0xbdbc86fb	-0.09205433
49	0xbe41fc35	-0.18943866
50	0xbd99a78d	-0.07502661
51	0xbe314345	-0.17310818
52	0xbdab1441	-0.083534725
53	0x3d67cfff	0.056594845
54	0x3cfaadda	0.030600477
55	0x3dfc074c	0.12306079
56	0x3d39c317	0.045352068
57	0xbe0cc022	-0.13745168
58	0xbbcc498a	-0.0062343525
59	0xbc1e326f	-0.009655579
60	0x3e0cafdb	0.13738959
61	0xbcbfa18e	-0.023392465
62	0x3dacc8c6	0.08436732
63	0xbd77a176	-0.060456716
64	0x3afccba9	0.001928677
65	0x3dee3819	0.116317935
66	0x3d0773d8	0.03306946
67	0xbdef269e	-0.116772875
68	0xbd00d452	-0.031452484
69	0xbbda8cff	-0.00666964
70	0x3d99a6f6	0.075025484
71	0x3c1879db	0.009306396
72	0x3d9bb5ec	0.07603058
73	0xbcda0697	-0.02661447
74	0xbbdcb8c7	-0.0067358944
75	0x3dd3fa71	0.10350502
76	0x3c8044ef	0.01565787
77	0xbd523e9f	-0.05132925
78	0x3e0766e4	0.13222843
79	0x3d84557f	0.064616196
80	0x3cb056dd	0.021525795
81	0x3df9f10a	0.12204178
82	0x3dffac45	0.1248403
83	0xbdc457e1	-0.09587074
84	0xbd588d59	-0.052869175
85	0xbdba3c00	-0.09093475
86	0x3cfcb843	0.030849582
87	0x3d929eae	0.07159172
88	0x3dd01eed	0.101621486
89	0x3daf8a70	0.08571327
90	0x3b3e9fec	0.002908702
91	0xbcb4149e	-0.021982487
92	0xbd013846	-0.031547807
93	0xbcc783b1	-0.024354788
94	0x3c30178f	0.010747804
95	0xbea0fce1	-0.3144293
96	0xbd11227f	-0.03543329
97	0x3d182f1c	0.037154302
98	0xbd3d5e4f	-0.046232518
99	0xbcc05ce9	-0.023481803
100	0x3e53caf2	0.20682886
101	0xbce4bffd	-0.027923578
102	0x3ca1a09c	0.019729905
103	0xbd211677	-0.039328065
104	0xbd1e26c3	-0.038611185
105	0x3cb0918c	0.021553777
106	0x3cbb39eb	0.022854766
107	0xbc9c2820	-0.019062102
108	0x3dc3d8f5	0.09562866
109	0xbdd2f5a5	-0.10300759
110	0x3e000fcd	0.12506028
111	0xbb839ffe	-0.0040168753
112	0xbb6b8de2	-0.0035942723
113	0x3e13336b	0.14375083
114	0x3d1d36d9	0.038382385
115	0x3ce75612	0.028239284
116	0x3c34bea4	0.01103178
117	0xbc48fdcd	-0.012267542
118	0xbe46f0e1	-0.19427826
119	0x3ce6b38a	0.028161783
120	0x3d6f7157	0.0584577
121	0xbd737fb7	-0.05944797
122	0xbc4bbb35	-0.01243477
123	0xbcd436ad	-0.025904978
124	0xbcce631e	-0.025193747
125	0xbdb75cec	-0.0895327
126	0x3d6888bc	0.056771025
127	0x3d26df53	0.040740322
128	0x3d304f0d	0.04304414
129	0xbc359399	-0.011082553
130	0xbd0dd806	-0.034629844
131	0xbd3cff29	-0.046141777
132	0xbd98ce2d	-0.074612
133	0xbcf4b2b4	-0.029870369
134	0xbbc77851	-0.006087341
135	0xbd88520e	-0.06656276
136	0x3daf5670	0.085614085
137	0xbd944b8d	-0.07240973
138	0xbd339f5c	-0.04385315
139	0x3c353cde	0.011061875
140	0xbd73efc0	-0.059554815
141	0xbbbe7eee	-0.005813471
142	0xbd8f53a9	-0.06998379
143	0xbdbf8382	-0.09351255
144	0xbc09deea	-0.008414963
145	0x3dbf660b	0.09345635
146	0xbb3f35dc	-0.002917639
147	0x3dbd24f6	0.09235565
148	0xbc1f3f8c	-0.009719741
149	0xbd0baa1f	-0.034097787
150	0x3d9f9321	0.077917345
151	0xbd0aa22a	-0.033846058
152	0xbda8a5fe	-0.082347855
153	0x3c6bedb7	0.014399937
154	0x3d5e63fe	0.05429458
155	0xbc9dc044	-0.019256718
156	0x3d9c4d83	0.07631972
157	0xbd58512e	-0.052811794
158	0x3d843eb2	0.06457271
159	0xbd4d6df8	-0.050153702
160	0xbcd4f078	-0.02599357
161	0xbd519909	-0.051171336
162	0x3d5907bf	0.052985903
163	0xbd4d6839	-0.050148223
164	0x3d8c9fbe	0.06866406
165	0x3c9bb8d6	0.019009035
166	0xbd3fc111	-0.04681498
167	0xbd3caf9f	-0.046065923
168	0xbcf53003	-0.02993012
169	0x3d5da2a3	0.05411018
170	0xbccefb3c	-0.025266282
171	0xbd0c0c3c	-0.034191355
172	0xbd536478	-0.051609486
173	0xbd957fcf	-0.07299768
174	0xbd59b411	-0.05315024
175	0x3db669a3	0.08906867
176	0xbd8eed94	-0.06978908
177	0xbd910c6f	-0.0708245
178	0x3d164185	0.036683578
179	0x3cff9726	0.031200003
180	0x3d94bb7c	0.07262322
181	0xbcf90825	-0.030399391
182	0x3d332125	0.04373278
183	0xbc9e3027	-0.01931007
184	0xbd9506d3	-0.07276692
185	0xbd1a9ef6	-0.037749253
186	0xbdad5c37	-0.08464854
187	0x3d103cb8	0.035214156
188	0xbcf4776b	-0.0298421
189	0xbd87b5fa	-0.06626506
190	0x3d1c970e	0.038229994
191	0x3d25c8e6	0.040474795
192	0x3dd0cccb	0.10195311
193	0x3dbb9256	0.09158771
194	0x3d657957	0.05602392
195	0x3da09341	0.078405865
196	0x3da2b7fd	0.07945249
197	0x3d6875fa	0.056753136
198	0x3cdcafdb	0.026939323
199	0x3bce7c06	0.006301406
200	0x3b2eae33	0.0026654124
201	0xbd66cc86	-0.056347392
202	0x3d117c83	0.035519134
203	0xbbef409e	-0.007301404
204	0x3d137eeb	0.03600971
205	0xbd83bf5a	-0.06432982
206	0xbd692ac0	-0.056925535
207	0x3d7edcb5	0.0622222
208	0xb9c71e82	-0.00037978968
209	0x3d209563	0.039204966
210	0xbdd11234	-0.1020855
211	0xbd50bc7f	-0.050961014
212	0xbd991149	-0.07474
213	0xbb19ee90	-0.0023488142
214	0x3d4ba0c3	0.04971386
215	0xbced9f6d	-0.029006684
216	0x3da6857f	0.08130931
217	0xbce991d2	-0.028511915
218	0x3d819e85	0.06329063
219	0xbdb348cd	-0.0875412
220	0x3cbee2b1	0.023301454
221	0xbdb113b0	-0.08646333
222	0xbc15b29e	-0.009136824
223	0xba8d690c	-0.0010788753
224	0x3b234756	0.0024914346
225	0x3c46a355	0.012123902
226	0x3a67a8eb	0.00088371214
227	0xba5a0dcb	-0.00083180954
228	0x3dd00c1b	0.10158559
229	0x3d8c24a2	0.06842925
230	0x3d6b3573	0.05742402
231	0x3dbe17f5	0.09281913
232	0xbad35b60	-0.0016125254
233	0xbc2ae8c9	-0.010431477
234	0x3d13bb4f	0.036067303
235	0x3d49a7f2	0.04923243
236	0xbd03ef1a	-0.032210447
237	0xbd945319	-0.07242412
238	0xbb8f77bb	-0.0043782867
239	0xbd12446f	-0.035709795
240	0xbd018274	-0.03161855
241	0x3d1753e5	0.036945242
242	0xbc0ed17b	-0.008716936
243	0xbd71ac50	-0.05900222
244	0xbd8c2cab	-0.06844457
245	0x3dbcf0f1	0.092256434
246	0x3d8c37dd	0.068465926
247	0xbd894a98	-0.06703681
248	0xbbcf0f32	-0.00631895
249	0x3b86a3e4	0.0041088928
250	0x3d44f103	0.04808141
251	0xbd8a6940	-0.06758356
252	0xbc3e8474	-0.011628259
253	0x3cd3b920	0.02584511
254	0x3c457c1f	0.012053519
255	0x3c3bad7b	0.011454935

fc2.bias f4 [64]
0	0x3ade1594	0.0016943687
1	0xbd4f1365	-0.050555605
2	0x3dc2cb57	0.0951144
3	0x3c2156cb	0.009847353
4	0x3dbb24bd	0.09137867
5	0xbd2e01ad	-0.042482067
6	0xbcf22f13	-0.029563462
7	0x3d8992da	0.06717463
8	0xbd488245	-0.04895236
9	0xbdbe0dcd	-0.09279976
10	0x3c6d3fb4	0.01448052
11	0x3c959b0f	0.018262414
12	0xbd0d1af4	-0.034449533
13	0xbd459a50	-0.048242867
14	0x3cc7e547	0.02440132
15	0x3c3fe943	0.011713329
16	0x3cc04bf0	0.02347371
17	0xbd2876df	-0.04112899
18	0xbd8ef7cf	-0.069808595
19	0xbd6d3825	-0.05791487
20	0xbad83881	-0.0016496332
21	0x3da1c53f	0.0789895
22	0xbcb8a0e8	-0.022537664
23	0x3d219634	0.039449885
24	0xbc1e94ec	-0.00967906
25	0x3d75ca04	0.06000711
26	0x3e0780cc	0.13232726
27	0x3d0f9f44	0.035063997
28	0xbd075718	-0.033042043
29	0xbd3972a0	-0.04527533
30	0x3d776a25	0.06040396
31	0x3dc8f7e1	0.09812904
32	0xbd9f3908	-0.0777455
33	0x3d8f4ce6	0.06997089
34	0x3d93d19b	0.072177134
35	0xbd821a4b	-0.06352671
36	0xbc9f79e7	-0.019467307
37	0x3cf8fc55	0.030393759
38	0x3cddde43	0.027083522
39	0x3c35af7a	0.0110892
40	0x3cf34b33	0.029698944
41	0x3cbc478e	0.022983339
42	0xbca7a421	-0.020464005
43	0xbc4f958c	-0.012669932
44	0x3e09c904	0.13455588
45	0x3d0c599e	0.034265153
46	0xbc13e528	-0.009026803
47	0xbda51eb1	-0.080624945
48	0x3aade343	0.0013266582
49	0xbd6b3c32	-0.057430454
50	0xbcb7c104	-0.022430904
51	0xbd7054ab	-0.058674496
52	0xbd982430	-0.07428777
53	0x3dc47bf4	0.09593955
54	0x3d1190a2	0.035538323
55	0x3d976386	0.073920295
56	0x3c94926c	0.018136226
57	0x3dc87152	0.09787239
58	0x3e157a8e	0.14597532
59	0x3be419d0	0.006961085
60	0x3ceee8c1	0.02916372
61	0xbd5f1a8b	-0.054468673
62	0xbd8b0eec	-0.067899555
63	0xbd03f608	-0.032217056

fc3.weight f4 [4, 64]
0	0x3ea18840	0.31549263
1	0x3d54d28d	0.05195861
2	0x3dd496aa	0.103802994
3	0x3e20cc56	0.15702948
4	0x3d05707c	0.032577977
5	0xbdb6f235	-0.08932916
6	0x3ea58c25	0.32333484
7	0xbd1e27f5	-0.038612325
8	0xbd02eca9	-0.031963978
9	0xbe0ae6ca	-0.13564602
10	0x3da9636e	0.08270918
11	0x3e13d916	0.1443828
12	0xbdc4844e	-0.095955476
13	0x3dd21484	0.10257819
14	0x3dc22746	0.09480147
15	0x3d0b4a06	0.03400614
16	0xbd981044	-0.074249774
17	0xbdfd6418	-0.12372607
18	0xbd3d6ae4	-0.046244517
19	0x3da48f90	0.08035195
20	0xbe2a99df	-0.1666026
21	0x3df35484	0.118813545
22	0x3e8a04b7	0.26956722
23	0x3c4a8ed4	0.012363154
24	0xbdc27039	-0.09494061
25	0xbd825ab9	-0.0636496
26	0x3e00f9e7	0.1259533
27	0x3ceb7d9d	0.02874642
28	0x3ab8bf51	0.0014095103
29	0xbd6cf41f	-0.05785
30	0xbc766b29	-0.015040197
31	0x3e160bc5	0.14652927
32	0x3d5a12e6	0.05324068
33	0x3ddb8a45	0.10719732
34	0x3e17bc86	0.1481801
35	0xbdbd565f	-0.092449896
36	0xbda3fdb0	-0.080073714
37	0x3d66c756	0.056342445
38	0xbdc7fdcd	-0.097652055
39	0x3e56fee9	0.20995678
40	0x3e0659d6	0.13120207
41	0xbca0630e	-0.019578483
42	0xbe0288e7	-0.12747537
43	0x3e1ab92d	0.15109701
44	0x3b6437cb	0.0034823294
45	0x3b1c5a31	0.002385747
46	0x3e7c181d	0.24618573
47	0xbdd748a7	-0.10511904
48	0x3e0c059d	0.13674016
49	0x3d3262d0	0.043551266
50	0xbdad452d	-0.0846046
51	0xbce9e618	-0.0285521
52	0xbe38ac48	-0.1803447
53	0x3e016564	0.12636334
54	0x3dd4fce2	0.10399796
55	0x3d5080ee	0.050904207
56	0xbe20d8c5	-0.15707691
57	0x3d98cb81	0.0746069
58	0x3de7a5b4	0.11310902
59	0x3e0ceef2	0.13763025
60	0x3dc30bc9	0.09523732
61	0x3dc2ae9b	0.095059596
62	0x3db2bc29	0.08727295
63	0x3dab527a	0.083653405
64	0x3e2ebceb	0.17064254
65	0x3e07d9ae	0.13266632
66	0x3d338a8c	0.0438333
67	0x3dd13b32	0.10216369
68	0x3d883742	0.066511646
69	0x3d198f1b	0.03748999
70	0x3e3310d3	0.17486887
71	0x3c38b0b9	0.011272603
72	0x3cb66219	0.022263573
73	0x3d864d31	0.06557692
74	0xbdb28e69	-0.08718569
75	0x3e02f5e4	0.12789112
76	0x3d9ba58d	0.07599936
77	0x3d731c8d	0.0593534
78	0x3db2dc37	0.08733409
79	0xbdd4b8f4	-0.103868395
80	0xbd7b1127	-0.061295655
81	0xbd421d0d	-0.047390986
82	0x3d3e715a	0.04649482
83	0x3ce81470	0.028330058
84	0xbde5bd45	-0.11217741
85	0x3d373307	0.044726398
86	0x3d2dc7a3	0.042426717
87	0xbdb98080	-0.090577126
88	0xbd75ebc3	-0.060039293
89	0xbdbd0d51	-0.092310555
90	0x3df1ca82	0.118062034
91	0xbcaf4e4f	-0.021399645
92	0x3e03240b	0.12806718
93	0xbd87ec72	-0.06636895
94	0xbdad8bd3	-0.08473935
95	0xbb7f50e1	-0.003895812
96	0xbd2e41ea	-0.04254333
97	0x3d057ef2	0.032591768
98	0x3c7fb906	0.015608078
99	0xbd46fbd0	-0.04857999
100	0xbdcba34e	-0.09943257
101	0x3c915af5	0.017743567
102	0xbdc9c79c	-0.098525256
103	0x3e253f48	0.16137421
104	0x3de3fae8	0.11131841
105	0xbe05dbb7	-0.13072096
106	0xbd3c6b31	-0.046000663
107	0x3e0cbe81	0.13744546
108	0x3e13ab9b	0.14420931
109	0xbd666c82	-0.056255825
110	0x3e709d28	0.2349745
111	0x3db520e5	0.08844165
112	0x3e0ce49e	0.13759086
113	0xbcc6a828	-0.024250105
114	0x3babedc7	0.005246851
115	0x3d3d92bd	0.04628252
116	0xbe36f4a7	-0.17866765
117	0x3e26ca4f	0.16288112
118	0x3df79795	0.12089459
119	0x3d2abfc0	0.041686773
120	0x3ddb25fe	0.10700606
121	0x3d8a1cee	0.06743799
122	0x3de8f9da	0.113757804
123	0x3d8fdb93	0.07024302
124	0x3e2c6ccf	0.16838382
125	0x3debdb9f	0.11516499
126	0x3e03bbff	0.12864684
127	0x3e26fcb8	0.16307342
128	0x3e0ffa92	0.14060429
129	0xbe246039	-0.16052331
130	0x3d901e66	0.07037048
131	0x3e49e8e0	0.19717741
132	0x3e13f294	0.14448005
133	0x3e84577a	0.2584799
134	0x3d3a04bd	0.045414675
135	0x3e578dfb	0.21050255
136	0xbc74049c	-0.014893677
137	0xbdc6c223	-0.097049974
138	0x3ddf4157	0.109011345
139	0x3ddf1c71	0.10894097
140	0xbe202290	-0.15638185
141	0xbd2ab285	-0.041674156
142	0x3dea70d6	0.11447303
143	0xbe15fb81	-0.14646722
144	0xbdaeb4ab	-0.085305534
145	0xbd25756b	-0.04039518
146	0x3db3c7ce	0.08778344
147	0xbdd060a5	-0.101746835
148	0x3b5ba54b	0.003351527
149	0x3d8add74	0.0678052
150	0x3db59e5e	0.08868097
151	0xbc793c04	-0.015212063
152	0x3d95b69d	0.07310221
153	0xbcd0d1e0	-0.025490701
154	0x3e001bb6	0.12510571
155	0x3dd2f3c4	0.10300401
156	0xbd9148b8	-0.07093948
157	0xbd4695e5	-0.048482794
158	0x3dd5f2b1	0.1044668
159	0x3c6dbee6	0.014510846
160	0xbd446bd7	-0.047954407
161	0x3de9173f	0.11381387
162	0x3ddb9c79	0.10723204
163	0xbdac19ad	-0.08403335
164	0xbb4f03a9	-0.0031587875
165	0x3e0a1c0c	0.13487262
166	0xbd061a51	-0.03273994
167	0x3dfa7d1f	0.12230896
168	0x3e4aa9a4	0.19791275
169	0xbd915649	-0.07096536
170	0xbdc7772f	-0.09739529
171	0x3ce635a2	0.028101746
172	0x3d821a6b	0.06352695
173	0xbc98c2b0	-0.018647522
174	0x3bb0f242	0.005399973
175	0xbdf8fdf9	-0.121578164
176	0x3c8e68af	0.017383901
177	0x3e1c5877	0.15268122
178	0x3bcb1311	0.0061973413
179	0x3e2c4fb0	0.16827273
180	0xbe8d7e87	-0.27635595
181	0x3e17d9eb	0.14829223
182	0xbd365c38	-0.04452154
183	0x3df94c20	0.12172723
184	0xbdc9a422	-0.09845759
185	0x3e18fe56	0.14940771
186	0x3e0797a3	0.13241439
187	0xbcb8963d	-0.022532577
188	0x3e2b8050	0.16748166
189	0xbc2cf325	-0.010556017
190	0x3e219475	0.15779288
191	0xbd4d47f0	-0.050117433
192	0x3dee6155	0.11639658
193	0xbd9124d0	-0.070870996
194	0x3dfd22e4	0.123601705
195	0x3e2df9ff	0.16989897
196	0x3d9ae032	0.07562293
197	0x3ccb854c	0.024843834
198	0xb92dbd02	-0.00016568977
199	0xbdcbd04a	-0.09951837
200	0xbde7d59d	-0.113200404
201	0xbe2bb5d8	-0.16768587
202	0xbd5e98f1	-0.054345075
203	0x3df1ffb5	0.1181635
204	0xbdb6510d	-0.08902178
205	0x3d9d6e96	0.07687108
206	0x3df9b4aa	0.12192662
207	0x3d441a96	0.047876917
208	0x3d15ace0	0.03654182
209	0x3de89a70	0.113575816
210	0xbe91bed0	-0.2846589
211	0x3e50d523	0.20393805
212	0x3dec88e9	0.11549551
213	0x3e1eaa53	0.15494661
214	0x3cf8c2fb	0.030366411
215	0x3da233ee	0.07920061
216	0xbd565099	-0.052322958
217	0xbd816bec	-0.063194126
218	0x3e12558c	0.14290446
219	0x3d649630	0.055807292
220	0x3db6666b	0.089062534
221	0xbd39893d	-0.045296896
222	0xbdad4e8b	-0.084622465
223	0x3e12d0c8	0.14337456
224	0xbe1317d1	-0.14364554
225	0x3e8a1516	0.26969212
226	0x3dc072a2	0.093968645
227	0xbd410c6f	-0.047131
228	0xbdf294a8	-0.1184476
229	0xbd4e89e3	-0.050424468
230	0xbde34432	-0.110969916
231	0x3e04a07c	0.12951845
232	0x3d88e79b	0.066848
233	0xbdec7977	-0.11546605
234	0xbd50fd34	-0.051022723
235	0xbdb48f25	-0.08816365
236	0x3e08d30e	0.13361761
237	0xbe998933	-0.29987487
238	0x3d9e3756	0.07725398
239	0xbd6e91b7	-0.058244433
240	0xbd118913	-0.035531115
241	0x3e3a4c09	0.18193068
242	0x3d5ad6c4	0.053427473
243	0x3d0ca4e8	0.034336954
244	0xbd012b96	-0.031535707
245	0x3be3e089	0.006954257
246	0x3dd018be	0.10160969
247	0x3e108f66	0.14117202
248	0xbd2c2857	-0.04203066
249	0x3d01bd8f	0.031674918
250	0x3d85816d	0.06518827
251	0xbdc93777	-0.09825032
252	0x3d41c1a5	0.047303814
253	0x3af15da2	0.0018414746
254	0xbd13aa7a	-0.03605125
255	0x3e2a7862	0.16647485

fc3.bias f4 [4]
0	0xbd51bc00	-0.05120468
1	0xbc465a5a	-0.012106502
2	0x3de13871	0.109970935
3	0x3d9d4fd1	0.076812394
