saved_checkpoints/checkpoint-9802.pth (torch, 55909 bytes, 6 tensors)

fc1.weight f4 [128, 37]
00000000: e890 063d 07ae a23d 654e d63d 94f2 91bd
00000010: 9ba9 933b 79c2 8a3d db17 1abd a227 853e
00000020: a6ca 743d da35 87be c309 be3d c715 95bd
00000030: 0f90 b33c 6705 03be 0d4b 683d 3b67 893d
00000040: 932c fb3d dc33 343e a818 13bb 30d9 b93d
00000050: 86f2 bf3d f7dc 053e 339b 0e3e 9ae5 903e
00000060: bc5d ccbd cf58 f23b 73b8 093e 1eab b43d
00000070: 5d6f 5b3d e541 22be 0e89 70bd 9baa 023e
00000080: c023 1b3e 5531 7a3d dde3 2bbe 70ba 1dbe
00000090: f332 4bbd ef23 6c3e cb77 44bd d06b 3d3d
000000a0: 37d1 ad3c 7052 a2be 66a9 a3bd d71f 37be
000000b0: ff79 9dbd 213d 553c ab32 35bd daac 07bd
000000c0: 8538 c23c f94c 40ba fbd6 f43c 2031 373e
000000d0: 62f1 a53c b0e9 1cbd 39b9 6c3d f4f0 0d3d
000000e0: 2383 20bd 5e90 2fbe 55a3 eabc af3a e0bd
000000f0: 0ff0 053c 54f0 04be e0f2 bcbd ab61 843d
00000100: 579c cab9 1b7e 9abd de82 47be 9aca 78bd
00000110: 7d83 393e dbd7 073e 281e 9cbd 0fd2 9ebd
00000120: fe83 0d3d ad22 873d 510a 013d 9244 733c
00000130: 4d67 17bc 05ca 20bd 1399 b6ba 2df0 d4be
00000140: 6ccd 1a3e fa7f 143e 1f53 02bd 2cbd 53bf
00000150: 6548 1cbe 6ed2 6fbd c06d cfbd 297e 5bbc
00000160: 7556 a03d 34a6 ca3d fc22 95bd 99e5 b33c
00000170: b26f edbd 9095 7dbd b0f1 c4bd fa6d fbbd
00000180: 902d 69bd 66e9 abbc 082d b03c 98a0 babe
00000190: 251b 013e 3b3a a13e ddda 1cbe 9d5b 9cbf
000001a0: 8c3a fabd 060e 08be 96c1 f9bd d18a 54be
000001b0: 4a9c 313c e37b 103c 9575 513b 60e8 bf3d
000001c0: 0f50 b63d 095c e43d b54f 1e3e db0f 533d
000001d0: 274f f33c c3f8 b83d ff8d 9f3c ba33 b83c
000001e0: 5738 353a b9eb 303d 96da a23c 42ee ffbb
000001f0: 250f 0a3c bd2a 0bbd f082 093e 074b b6be
00000200: fd76 fabe 6f9a b5be 8865 a4bf ecd7 113d
00000210: 57cd 0a3d bf6e c43c f8d1 4c3d deec 27bd
00000220: e742 cc3c 57eb 723d 8914 8c3d 2165 183e
00000230: 636e 433e 1457 2d3d 5c3c be3d 6e13 f13d
00000240: fb73 123e 8363 733d 2275 41bb f911 1eba
00000250: cb36 4bbe ebe5 58be 14b5 15be fae3 97bd
00000260: 92d2 0a3d 8fdd dd3c 7581 003e 8b81 a4be
00000270: 8ba8 613d fbdb be3d 31bc cebd 76b2 3bbd
00000280: 3692 02be a8dd 8bbd 44f1 c2bd b235 20be
00000290: 6520 debd ffd4 87bd 89ed 1dbd 87ec 2c3e
000002a0: 2e45 d7bd 84b5 f1bd c349 1b3b 32b1 c739
000002b0: 7af2 103e f4ee cc3d 6bae 35be db25 9ebd
000002c0: f6d3 e3bd f071 093d b32e 993d e529 29be
000002d0: 3e21 0cbe a335 bb3d b47a 803e 6d51 413d
000002e0: 08fe 343d 4c23 c63c 3e69 4fbc a5c5 4cbc
000002f0: cd9a 52bd 09a5 353e 7dd3 143e d689 bebc
00000300: 00d6 fdbc ea00 133b 634a 1bbf 3dac aabd
00000310: a807 7b3c db1e deb9 519f 01be db8d c03a
00000320: 123a 263c b4bf 093e acdd 11be 0fe9 d0bd
00000330: 7f6b 41be f6bf 763d aa70 f339 a59b 253e
00000340: b656 053e 11e9 2cbd 141d 35bd ded5 06bc
00000350: 5ca7 ba3d 9141 8e3c 8aec 803c 6c73 703d
00000360: 9eb6 adbd 7846 fdbd b0c7 933d ffa3 ccbe
00000370: 4a6e 8dbd b709 593d dd4e 2cbb b05b 0e3d
00000380: c180 cc3c eead c63c 0265 cebc 7057 35bc
00000390: cb1f 87bc 80b3 893c 9acc 9a3d 2105 c83d
000003a0: 60c8 2e3d f074 cd3d 50cb 9a3d 1b5e f93d
000003b0: 7e7c 963d 9da6 91bc 84b4 5b3b ea63 bd3c
000003c0: efd8 2a3d 5b01 443d 6775 fabc 5f6d ec3c
000003d0: daef 333c ec10 b43d e390 063e 34c8 afbd
000003e0: fa04 03bc 8c3f 55bc 7db3 573c 3237 613d
000003f0: 9d87 703e 4117 37be 9941 b1be 8d41 a0be
0.032853037 0.07943349 0.10464171 -0.07126346 0.0045063025 0.06775374 -0.037620407 0.260068
0.059763573 -0.26408273 0.09279206 -0.07279544 0.021919278 -0.1279503 0.0567122 0.06709143
0.12264361 0.17597908 -0.0022445116 0.09074628 0.093724295 0.13072573 0.13926391 0.28300172
-0.09978816 0.0073958407 0.13449268 0.088217005 0.053573 -0.1584545 -0.058724456 0.12760393
0.15150356 0.061082203 -0.16786142 -0.15403152 -0.049609136 0.23060583 -0.047965806 0.046245396
0.021217925 -0.3170352 -0.079912946 -0.1788324 -0.076892845 0.013015063 -0.044237774 -0.03312383
0.023708591 -0.00073356886 0.029887667 0.17889833 0.020256702 -0.0383088 0.05779383 0.03465362
-0.03918756 -0.17144915 -0.028642336 -0.10948693 0.00817491 -0.12982303 -0.09226012 0.06463941
-0.00038644925 -0.07543584 -0.19483516 -0.06074009 0.18116565 0.13265936 -0.07622939 -0.07754909
0.034549706 0.06598411 0.03150398 0.014847891 -0.009240937 -0.03925516 -0.0013931118 -0.4158949
0.15117425 0.14501944 -0.03181755 -0.8271053 -0.15261991 -0.05855029 -0.10128355 -0.013396778
0.0782899 0.09894982 -0.07282063 0.021960067 -0.1159357 -0.061910212 -0.09616411 -0.12276836
-0.056928217 -0.020985316 0.021505848 -0.36450648 0.12608011 0.3148974 -0.15317865 -1.2215458
-0.12218198 -0.132866 -0.12195127 -0.2075608 0.010840485 0.008818599 0.0031960953 0.09370494
0.08901989 0.11150367 0.15460093 0.051528793 0.029700829 0.090318225 0.019476889 0.022485603
0.00069129973 0.043193553 0.01987962 -0.007810385 0.008426462 -0.033976305 0.13428855 -0.35604116
-0.48918906 -0.35469386 -1.2843485 0.03560631 0.033887234 0.02397859 0.05000493 -0.04099738
0.024934245 0.05930647 0.06839854 0.14882328 0.19085078 0.042319372 0.092888564 0.11771284
0.14302056 0.059421074 -0.002951928 -0.00060299 -0.1984512 -0.21181457 -0.14619857 -0.0741653
0.03389222 0.027083186 0.12549384 -0.32130083 0.055092376 0.09319302 -0.100944884 -0.04582449
-0.12751088 -0.06829387 -0.09518674 -0.15645483 -0.108460225 -0.06632423 -0.03855661 0.16887103
-0.10511242 -0.118021995 0.0023695088 0.0003808826 0.14154997 0.10006514 -0.17742316 -0.07722064
-0.11124413 0.033555925 0.0747961 -0.16519888 -0.13684556 0.0914109 0.25093615 0.047196794
0.044187576 0.024186753 -0.012659369 -0.012498294 -0.05141716 0.17738737 0.14533801 -0.023259085
-0.030985832 0.0022430965 -0.6066038 -0.08333633 0.01532165 -0.0004236613 -0.1265843 0.0014690714
0.010145681 0.13452035 -0.14244717 -0.102007024 -0.18888663 0.060241662 0.00046432513 0.16172655
0.13021359 -0.042214457 -0.044217184 -0.008229701 0.091139525 0.017365249 0.01573779 0.058703825
-0.08482097 -0.123669565 0.07215822 -0.3996887 -0.069058016 0.05298778 -0.0026292123 0.03475541
0.024963738 0.024252858 -0.025194649 -0.01106821 -0.016494652 0.016809225 0.07558556 0.09766603
0.04267156 0.1003207 0.0755831 0.12176152 0.07347964 -0.017779643 0.0033524344 0.023118932
0.04171079 0.047852855 -0.03057356 0.028860746 0.010982478 0.0879229 0.13141207 -0.085831076
-0.007996792 -0.013015639 0.013165352 0.05498428 0.23489232 -0.17879964 -0.3462036 -0.3130001

fc1.bias f4 [128]
00000000: d99d 5ebd 75e8 aabb 0330 de3d 5bd6 d0bd
00000010: d848 b4bd d0f6 82bd 0cf7 bd3c 32e5 5c3e
00000020: f5be 57be 2ef0 303e 0d4d 01be 02bb 193b
00000030: a0ab 9b3d 37f4 583d 775b 0abd e375 d03d
00000040: 0d73 033e c0ef e9bd 6219 a5bc dbd6 b53d
00000050: 907f 6bbc d4cf 99bd a860 803e ce3c cfbd
00000060: bc5d b93d f667 f33d 3642 853e 77e2 0e3c
00000070: 1c5f 50bc 597e f6bd 4078 6c3e ba56 493c
00000080: 9d93 dfbd 2b56 aa3d 1b34 2f3e 9761 cfbc
00000090: 0435 273e 9d15 303e db3e a3bd dba9 de3d
000000a0: befa 173e ecf1 703e fa95 363e 328c e03d
000000b0: 19bd eabc 5346 25bd bfb4 2d3d c627 00be
000000c0: 3d66 38be 471b 623e 2d69 123d 8827 383d
000000d0: d974 8c3d 899a 0e3d 9848 2e3e 5501 243e
000000e0: f8c7 9abc 7d9d 5abc 8931 4a3d 0a44 cdbc
000000f0: c968 e9bd b9d0 ea3d 5e6b 123e 00d7 c63b
00000100: 6662 d93d 25e9 ac3d 6639 2b3e bc2e 31ba
00000110: 69a2 5fbd ba71 52bd 375b 033d 3528 e5bd
00000120: ed19 213e 5ec8 24bd 99bc c0bd db72 4f3d
00000130: 2618 953e 3026 18be a00e 193d 64d2 543d
00000140: b734 e43c ddeb 453e 659b 4c3e b4d3 dfbb
00000150: 9892 ba3d b400 3e3e 2735 c93d 1e33 a8bd
00000160: 3412 1bbc 67e5 293e 840a 42bc c6ad bdbc
00000170: 3a14 22be aa7b 05be c0fe ca3d f3c5 d13d
00000180: 810c aa3c 384c 7b3c f0c4 2a3d 1984 903e
00000190: 781e 47bd d7dd a1bd 2146 dc3d 197e e63d
000001a0: c24d 31be ff4c c0bd bb26 3e3b 0711 c23d
000001b0: b038 aebd 6831 95bc c85b 1f3e f3c5 843d
000001c0: fc59 58bc b0cd 37bd 7c4b 94bd 26cb d93d
000001d0: 51b9 043e f832 4a3e f065 6a3d 8010 c3bd
000001e0: 7cb4 9b3d 6def d33d df89 74bd e3fb 78be
000001f0: 4671 593d 4394 0c3e 6caa 1f3e d34f f83b
-0.054349754 -0.0052156993 0.10849001 -0.10197135 -0.08802956 -0.06394732 0.02318909 0.21571806
-0.21068938 0.17279121 -0.12627049 0.0023457413 0.07601094 0.052967276 -0.033778634 0.10178735
0.12836857 -0.11422682 -0.020153705 0.08878871 -0.014373675 -0.07510343 0.25073743 -0.101190194
0.090510815 0.11885063 0.26027077 0.008720986 -0.012717988 -0.12035818 0.23092747 0.012288744
-0.10916827 0.083172165 0.1710972 -0.02531509 0.16328818 0.17195745 -0.07970973 0.10872241
0.14841744 0.23529786 0.17830649 0.1096424 -0.028654622 -0.04035027 0.0424087 -0.12515172
-0.18007751 0.22080718 0.035744835 0.044959575 0.068582244 0.034815345 0.1701988 0.16016133
-0.01889418 -0.013343212 0.049363647 -0.025056858 -0.11396939 0.11465592 0.1429877 0.0060681105
0.10614471 0.08442906 0.16721115 -0.0006758978 -0.054598246 -0.05137799 0.03206941 -0.111893095
0.15732546 -0.040230148 -0.09410972 0.050646644 0.29119986 -0.14858317 0.037367463 0.051958457
0.027857168 0.19328256 0.19981153 -0.006830657 0.09109992 0.18554956 0.09824591 -0.08212875
-0.009464789 0.16591416 -0.011843327 -0.02315415 -0.15828028 -0.13035455 0.09911871 0.10242834
0.020757915 0.015337996 0.04169172 0.28225783 -0.04861304 -0.07903641 0.107555635 0.1125452
-0.17314819 -0.09389686 0.0029014784 0.09475904 -0.08506906 -0.018212035 0.15562356 0.06483068
-0.013205048 -0.044873893 -0.0724096 0.106344506 0.12961318 0.19746006 0.05722612 -0.095246315
0.07602784 0.10348401 -0.059701797 -0.24314837 0.05308654 0.13728432 0.15592355 0.007577875

fc2.weight f4 [64, 128]
00000000: 4415 cbbd 6904 25bd b723 4bbe a752 f33e
00000010: fa8a f13d 41ca 86bd 49d4 543f 5028 c83d
00000020: 46e2 293d b585 b53d 1dda 8c3d d13a 9fbd
00000030: 00e6 e33d def9 7dbd 418f 16bd 41b2 74bb
00000040: 46a9 ecbc a42d 0bbd 3961 98bc 5c31 8abd
00000050: a307 9d3d 6a9b 573d fb00 13bd 209d 283e
00000060: cde1 19bd af23 723c 908b 133c 665a acbd
00000070: 62ba a9be c37b d63e 121d e8bd abcf a23c
00000080: 0b1b c63d e664 ddbc 3181 ac3c 56ed fdbc
00000090: 8a03 783d 2959 273d ccab b03e dafe c5bd
000000a0: 48df 91bd 2a86 f1bc f2dc 18be d778 073e
000000b0: 6050 c43d ab1a 24bd a91e 92bd 43f1 d8bd
000000c0: f166 37bd 680a 33be b504 e5bd 8533 4fbe
000000d0: c411 aebd 5253 ee3e a571 bf3c 8b09 f83d
000000e0: ff82 8bbc 1531 44bd c0bd 02bd 8ab4 d03d
000000f0: f94f 0a3e e70f c8bc 248f c93d 4713 9dbd
00000100: 9512 503b aec7 a63d efab 393c 040d ddbd
00000110: 9c80 433d 4549 e8bc 447f ca3c affb 1b3e
00000120: b339 b53d 4269 84bd 6a8a 9b3c fbd4 b13d
00000130: 9696 e43c 1481 9dbc c2a8 cc3d 5fb5 b23d
00000140: 0d81 5fbb d56a 043e 2f05 093e a0e0 d8bd
00000150: 0302 e1bc 65c9 91bd d2ba c83c a044 2c3d
00000160: 5c28 613f 480e af3c 5683 0f3e 797b ce3c
00000170: 51bb 1ebd 2724 2ebc d9eb 5d3d c2a5 c6be
00000180: 510a 69bc 382b a63d 04d5 0abd ce5e 21bd
00000190: d0e6 513e 765d 053d 048c 343d 2804 b7bc
000001a0: e68f 62bd 41a2 65bc a967 303d 2a9c a2bb
000001b0: 78ba 163e acdc d7bc 0586 fb3d 100c 82be
000001c0: fd8b ebba 7a3d 113e da47 ef3d 6d3c d73d
000001d0: 939e 8c3b 45f4 74bd 9be7 81be d8e2 783d
000001e0: ca57 6b3d 94af d2bd 49f4 c83c 1860 c93c
000001f0: 02e9 f2ba cedf aabd c18e c73d a6c6 d73a
00000200: 844d 3c3e 43b4 cdbc 75a3 6dbe d731 a2bd
00000210: 1bc7 9dbd d1fb 71bb f23d 99be 311f f5bd
00000220: 97ad b33d 74df 8abd b426 1cbc c62b 0bbb
00000230: 9169 8c3c 647a cabc 4b93 e2bd dbe5 28be
00000240: a129 2c3e 6456 e63c 6690 79bd 952f 253e
00000250: c22f 693c 8285 29be 1ba3 c13d d536 90be
00000260: 4abd 8dbd 60a3 4abd 33e8 5a3d a062 94bd
00000270: 4193 86bb de91 cdbd f4b3 1b3e 44b5 cdbd
00000280: 2eae 613d 8f41 01be df21 053d b92c df3c
00000290: 8d1b 663d 8800 83bc a7df b3be 6b4a afbd
000002a0: 4e1c 433d 2db1 783d eff9 debb e5c4 01bd
000002b0: 5202 6ebb 0572 56bd e95e d2bb ff76 093e
000002c0: e506 e6bd 8a3f 13be 046f 0db9 08a1 713d
000002d0: 335e d93d 189f 10be 5ab5 7b3d 2f37 e9bb
000002e0: bf5d 95bd 3917 1f3d c0c3 aabd 878c 923d
000002f0: 6cd8 40bc 77e3 abbd fb16 583d beb3 61bd
00000300: bc56 2d3e 8a89 be3d 3188 98bd 05c5 4f3d
00000310: 0d5b 153e f1f6 503d a680 993d b6de 95bd
00000320: 75c5 423d 3a15 a8bd 01ea 92bd 2d0c b73d
00000330: 065c 623d bd30 76bd 508c 36bd 6936 cdbc
00000340: eeb8 02bd 201b 863c 3bc2 bebd 121f adbd
00000350: 3dd0 b4bd 75f8 1ebb 6539 963d f1f4 a3bd
00000360: ddf0 adbd 6783 5ebd 5a9e a8be f6e4 16be
00000370: 04d0 9b3d afb7 63bd a4b7 383e 870d 503d
00000380: dac5 99bd b6f4 28be c902 adbd bf41 85bc
00000390: a28f 133e c55a cf3c 4001 7f3c a782 fa3d
000003a0: 782c 493d bced afbd 010f 42bc 5b1c ca3d
000003b0: 9a4d e7bc 6b2d 9b3b a30f 603c 1735 10be
000003c0: 8c50 1abe 9b00 203c 9715 8abd 36d0 82bc
000003d0: 7810 a3bd b0c0 0d3e 789d d73c 324d 38bd
000003e0: fb4d 8abc a531 8bbd 51c9 7b3d ed80 a0bd
000003f0: 5fed 073c 67d7 f53c a226 803d d759 5c3d
-0.099161655 -0.04028741 -0.19837843 0.47523996 0.11794086 -0.065815456 0.8313642 0.09773314
0.041475557 0.08863393 0.06877539 -0.0777489 0.111278534 -0.06200587 -0.03675771 -0.0037337693
-0.02888931 -0.033979073 -0.018601047 -0.06747696 0.07667472 0.05263845 -0.035889607 0.16466188
-0.037568856 0.014779015 0.009005442 -0.0841568 -0.3315001 0.41891298 -0.1133367 0.019874414
0.09673127 -0.027025651 0.021057697 -0.03099696 0.06055025 0.040856514 0.3450607 -0.0966775
-0.07122666 -0.02948292 -0.14928034 0.1322969 0.09585643 -0.040064495 -0.07134754 -0.10592892
-0.044775907 -0.17484438 -0.111825384 -0.20234497 -0.08499482 0.46547943 0.02336962 0.12111195
-0.017030237 -0.04789837 -0.03191924 0.10190685 0.1350707 -0.024421645 0.09841755 -0.076696925
0.0031749357 0.08143555 0.011332496 -0.10793498 0.047730073 -0.02835525 0.024718888 0.15232728
0.08848896 -0.06465389 0.0189869 0.08683201 0.027903836 -0.019226588 0.099931255 0.08726
-0.003410402 0.12931378 0.13380884 -0.10589719 -0.02746678 -0.07118491 0.024503145 0.042057633
0.8795221 0.021369115 0.14014944 0.02520536 -0.038752858 -0.010628737 0.05418 -0.38798338
-0.014223651 0.08113712 -0.033894554 -0.039397053 0.20498204 0.032559834 0.04407884 -0.022340849
-0.055313013 -0.014015735 0.043067608 -0.004962464 0.1471957 -0.026350342 0.122814216 -0.25399828
-0.0017970797 0.14183608 0.116836265 0.10509572 0.0042913645 -0.059803266 -0.25372013 0.06076321
0.05745677 -0.10287395 0.024530547 0.024581954 -0.0018532577 -0.083434686 0.09744025 0.00164624
0.18388945 -0.02511037 -0.23206885 -0.079196624 -0.07703992 -0.0036923776 -0.29930073 -0.1196884
0.08773344 -0.067809016 -0.009530712 -0.0021235808 0.017140182 -0.024716564 -0.1106325 -0.16493933
0.16812755 0.028117366 -0.060928725 0.16131432 0.014232578 -0.16554835 0.09454938 -0.28166834
-0.0692087 -0.049472213 0.0534441 -0.07245374 -0.0041069095 -0.100375876 0.15205365 -0.10044339
0.05509775 -0.12622665 0.032503005 0.027243005 0.05617862 -0.015991464 -0.3513157 -0.08559116
0.047634415 0.060715843 -0.0068046967 -0.031681914 -0.00363173 -0.05235483 -0.0064200056 0.134243
-0.11231784 -0.14379707 -0.00013488164 0.058991462 0.1061367 -0.1412319 0.061452247 -0.007117174
-0.07293271 0.038840506 -0.083381176 0.0715571 -0.011770349 -0.08392995 0.05275629 -0.055103056
0.16927618 0.09303577 -0.074478514 0.050725 0.14585514 0.05101675 0.07495241 -0.07317869
0.04755159 -0.08207174 -0.07173539 0.08937869 0.05526354 -0.060105074 -0.044567406 -0.025050359
-0.031914644 0.016370356 -0.0931439 -0.08453192 -0.08828781 -0.0024256979 0.07335166 -0.08005703
-0.08493207 -0.054324534 -0.32933313 -0.14735779 0.07608035 -0.055595096 0.18038803 0.05079415
-0.0750844 -0.164996 -0.08447797 -0.016266702 0.1441026 0.025311837 0.015564263 0.12231951
0.049114674 -0.08590266 -0.0118443975 0.098686896 -0.028235245 0.004735639 0.013675603 -0.14082752
-0.15069789 0.009765769 -0.06742399 -0.015968423 -0.079621255 0.13843036 0.026320204 -0.044995494
-0.016882887 -0.06796578 0.061471287 -0.07837091 0.00829634 0.030009938 0.062573686 0.053796615

fc2.bias f4 [64]
00000000: 0625 d13c 81e2 21bd 0262 233e 8914 243d
00000010: 9224 183e 29e5 5dbd 42f5 8cbc 9a92 9b3d
00000020: 7b43 25bd 1682 d2bd 4391 a43c 19c5 ad3d
00000030: 6982 3ebc 22b4 d7bc 54ec b83d 0f3c 043d
00000040: a3ae 1a3c 3db5 47bd 7980 82bd 61a5 5bbd
00000050: d6bc 103b 4610 c13d 8105 afbc f8ff ee3c
00000060: c945 51bd 9f07 a23d becf 4c3e 6b42 9d3d
00000070: 5f8e 34bd fd2b 24bd f2a7 9e3d cdbc 213e
00000080: 3ee9 89bd 6f17 813d ab73 0b3e c358 9dbd
00000090: 48d2 ad3c 6260 833c 6014 0a3d b66d 2e3c
000000a0: 9231 bf3d 5feb fb3c 704c 0ebd 2086 0f3d
000000b0: 687f 2f3e bdcd 413d 50d6 8fbb 8d5d 48bd
000000c0: ec09 4e3d 4358 40bd 7e64 42bd ee66 58bd
000000d0: 613c cebd 5a7a 223e 746b aa3d 04a1 0a3e
000000e0: 25c9 223d 323c 243e e4b2 583e d2f4 193d
000000f0: 502b 833d 0ceb 80bd f80b 85bd aeaa 30bc
0.02553035 -0.03952265 0.15955356 0.040058646 0.148577 -0.054173622 -0.017206792 0.075963214
-0.040347558 -0.10278718 0.020088797 0.08484859 -0.011627772 -0.026331011 0.09029451 0.03228384
0.009441051 -0.048756827 -0.063721605 -0.053624514 0.0022085211 0.09426932 -0.02136493 0.02917479
-0.051091943 0.0791161 0.20001122 0.07678684 -0.04408109 -0.040081013 0.07746877 0.15794678
-0.067339405 0.06303298 0.13618343 -0.076829456 0.021218434 0.01603717 0.033710837 0.010646274
0.09335627 0.030751882 -0.034740865 0.03504002 0.17138445 0.047315348 -0.0043895617 -0.048917342
0.05030243 -0.046959173 -0.047459118 -0.052832536 -0.1007011 0.15866986 0.08321276 0.13537985
0.039742608 0.16038588 0.21161991 0.037586994 0.064047456 -0.06294832 -0.064964235 -0.010782881

fc3.weight f4 [4, 64]
00000000: 2bf6 d23e cba0 bc3d 7377 f73d c747 143e
00000010: d15e 513d c508 a4bd b196 a73e b9e5 9a3c
00000020: 8413 973c 443e 81be b5f8 313e 9adc 243e
00000030: 1bb0 70be 7acf a33d e489 d43d 4bff 563d
00000040: c9c2 15be cd52 013e 1545 04be 09ef f73d
00000050: bd59 27be 80e5 413e 6685 d83e f690 293c
00000060: 42be d53d 770f 2abe 5793 113e 679d e23c
00000070: 7700 963c 364f 0ebe f3b8 40bc a7b8 1e3e
00000080: cbf1 34bc 93e3 013f 8727 253e 8168 c7bc
00000090: 12cb d8bd 5980 cb3e c460 83bd 5630 6e3e
000000a0: 31e7 023e a0ec ff3b 0581 733b eff9 163e
000000b0: d503 c03c 57d1 0abd c460 723e afcf 8cbe
000000c0: 5fd3 0c3e 3593 f83d c000 20bd b6a2 ae3d
000000d0: 9b71 32be 9e14 0e3e fee6 e43d beef 883d
000000e0: 74c8 5fbf 14db b03d 7ecf 013e b475 a53d
000000f0: 20ab 833d a2e9 b13d 3839 013f 572b b23d
00000100: 2db4 903e dd10 84bc a0a4 803d 3ed7 143e
00000110: 0bb3 b23d 796b ef3c 1700 9b3e 4ef2 103e
00000120: f364 913d 5600 4dbe 1d21 6a3d bd30 133e
00000130: 2278 9d3d b3cf c83d a35f e53d b348 883d
00000140: 3dbb b9bd cfff aabc eeea 8bbc 73b7 f23d
00000150: 9cd6 03bd 150f ad3e 50ad 113f b937 90bc
00000160: 1b25 043e b65b 39be 32bd 083e ab21 1e3d
00000170: 5ec0 053e d8cf 2f3d 1a70 c83d 04b3 a63b
00000180: 18a1 8cbc 7598 193f b5cd 5e3d 7135 823d
00000190: 0a44 0bbd 34fc 303f 7d76 3dbe c7fa 093e
000001a0: 58b8 093e c557 ce3b c18d 213d d204 0b3e
000001b0: 34f2 1c3e f338 003d 9cab e33d 6209 183e
000001c0: a680 1c3e d592 f23d 1bf7 053d a85c 623e
000001d0: bda3 c0bd 85f9 3c3e 2fdb da3d bb06 543d
000001e0: 1d32 89bd ff87 843d 27ed 0a3e fd5a 0c3e
000001f0: f539 813e 49c9 273e fbe4 093f 6c35 b73d
00000200: 694a 103e 9bb3 8fbe 648d b63d 0f57 1d3e
00000210: 87d9 0c3e 12e3 a23e 414b 953d 11fe fd3e
00000220: eff7 613d 165a da3b c213 b23e d584 013e
00000230: 557b 40be 8049 1fbd 1df9 023e 1f72 84be
00000240: 0ac0 43be 6518 a83d 6735 103e 55d5 0ebc
00000250: eb52 a23c b6b5 793e 8229 2f3f 30f0 0d3e
00000260: 4878 c33e 7940 5cbe 384d 123e 1a9b e13d
00000270: d151 70bd eaf2 8b3d faff 3e3e c002 8f3c
00000280: 87f4 c3bd dba3 4a3e 8db7 f63d efa8 67bd
00000290: b32c 963d bbbb 773f 4aaa c1bd 400e 93bd
000002a0: 8f7e 523e 326d 49bc ff4c 15be de04 693d
000002b0: c693 903d fc81 813d d554 053b 2b0f 69be
000002c0: 0d41 063d 07b5 4d3e 3907 6b3d 6db6 843e
000002d0: 2699 41be aa4c 2a3e ec55 26bd 9064 073e
000002e0: e46a 81be ddb0 253e 1484 163e 2752 893c
000002f0: 4618 b53e 2958 87bc 527e 843e 4542 b4bd
00000300: 3d22 213e c38c aabd dd8e 0f3e fa8c 413e
00000310: dd67 d23d ec85 1c3e 53d7 33be be29 b4bd
00000320: 7f36 81be 0539 37bf 4c17 863d d1bd 103e
00000330: 7294 d23d 4252 0c3e 3732 143e 7914 b23d
00000340: 203e 503d e01c b53e a184 b2be f4c0 063f
00000350: be6e b43e 71c2 0f3f 959d 013f 0dba 623e
00000360: ffc2 293e bccb 0dbf 36ba 253e e824 b53d
00000370: 88b5 ca3d 3ca9 b7be b6b9 8cbd a75d 2b3e
00000380: 9753 85be 7365 053f 74fe ea3d 0b2c 8dbd
00000390: 49be 503d e6f7 bd3e 40ef 85be c5b6 353f
000003a0: db35 ba3d 53dd e2bd 5683 d53d 282d 9cbd
000003b0: f9f6 1f3e 19e1 8dbe 9692 90bd 7c97 a0be
000003c0: 22a6 d8bc 39b8 853e 78ee 593e 1a69 333e
000003d0: df8e 2ebd 88a8 043d afba ff3d 87a4 263e
000003e0: a748 e8bd 2d04 603d 47cf b03d 45dd 21be
000003f0: c1ba 953d 0cb0 04be 2a64 473e 241f 413e
0.41203436 0.09210356 0.1208333 0.14480506 0.051115815 -0.08009485 0.32732156 0.018908368
0.018441923 -0.25242817 0.1738003 0.16099778 -0.23504679 0.079985574 0.10377863 0.05248956
-0.14625086 0.12629242 -0.12916978 0.12106139 -0.16342826 0.18935204 0.42289275 0.010349503
0.104366794 -0.16607462 0.14216362 0.027662946 0.018310769 -0.13897404 -0.011762845 0.15500127
-0.011043976 0.50737876 0.1612836 -0.024341824 -0.105856076 0.3974636 -0.06414941 0.23260626
0.12783505 0.0078101903 0.003715576 0.1474378 0.023439327 -0.03389105 0.23669726 -0.275022
0.13752507 0.121374525 -0.039063215 0.085271284 -0.1742615 0.13875052 0.11176871 0.06686352
-0.8741524 0.08635536 0.12676808 0.08079091 0.06429124 0.0868714 0.50477934 0.08699673
0.28262463 -0.016121322 0.062814 0.14535233 0.08725556 0.029226052 0.30273506 0.14154932
0.07099333 -0.2001966 0.057160486 0.14374061 0.07688929 0.098052405 0.11199882 0.06654491
-0.09068916 -0.020873932 -0.017079797 0.118513964 -0.03218709 0.3380057 0.5690508 -0.017604696
0.1290478 -0.18101391 0.13353422 0.038606327 0.13061664 0.042922825 0.09787007 0.0050872583
-0.01716666 0.59998256 0.054395396 0.063578494 -0.034000434 0.6913483 -0.18502231 0.1347457
0.13449228 0.006297084 0.039441828 0.13576058 0.15326768 0.03130431 0.11116716 0.1484733
0.1528345 0.11844412 0.03270636 0.22105658 -0.094062306 0.18454559 0.10686337 0.05176423
-0.066990115 0.06471252 0.13567029 0.13706584 0.2523953 0.16385378 0.5386502 0.08945736
0.14090885 -0.28066716 0.08913687 0.15365241 0.13754855 0.31813866 0.07289744 0.496079
0.05516809 0.006663571 0.347807 0.12648328 -0.18797047 -0.038888454 0.12790342 -0.25868317
-0.19116226 0.08207778 0.14082871 -0.0087178545 0.019814929 0.24385723 0.6842271 0.13861156
0.38177705 -0.2150897 0.14287269 0.110159114 -0.058671776 0.068334416 0.18652335 0.017457366
-0.09568124 0.19789068 0.12046728 -0.056557592 0.073327444 0.9677083 -0.09456308 -0.07180452
0.20556091 -0.012294101 -0.14580153 0.056889407 0.070594355 0.06323621 0.0020344753 -0.22759692
0.03277688 0.20088588 0.057379935 0.2592043 -0.18906078 0.16630808 -0.040609285 0.13221955
-0.25276864 0.16180749 0.14698821 0.016762806 0.35370082 -0.01652153 0.25877625 -0.088017024
0.15735717 -0.083276294 0.14019342 0.18901435 0.102737166 0.15285462 -0.17562608 -0.08797024
-0.2523689 -0.7157138 0.06547412 0.14134909 0.1028222 0.13703254 0.1447228 0.08695311
0.050840497 0.35373592 -0.34866813 0.52638173 0.3524074 0.5615607 0.50631076 0.22141285
0.16578291 -0.55389 0.16184315 0.0884493 0.098979056 -0.35871303 -0.06871359 0.16734944
-0.26040336 0.52107924 0.11474314 -0.06893166 0.05096272 0.37103194 -0.26159096 0.7098201
0.09092303 -0.110773705 0.10425441 -0.076258 0.15621556 -0.27710798 -0.07059209 -0.31365573
-0.026446406 0.26117113 0.21282375 0.17520562 -0.04261672 0.032387286 0.12486779 0.162737
-0.11341982 0.054691482 0.08633285 -0.15807064 0.07311011 -0.12957782 0.19471803 0.18859535

fc3.bias f4 [4]
00000000: 5f0a 073c 8974 683c eaee 1c3e 01b3 e03d
0.008242219 0.01418794 0.15325513 0.10971642
