saved_checkpoints/checkpoint-437.pth (torch, 55909 bytes, 6 tensors)

fc1.weight f4 [128, 37]
000000 28 bb c0 3c 7f 48 7d 3d 41 3f ce bd 79 77 d1 bd
       0.023526743 0.061836716 -0.100706585 -0.10227866
000010 77 b2 36 bd 26 0a e1 3d 78 e0 b5 bc f9 cf 2c 3e
       -0.04460379 0.10988264 -0.022201762 0.1687621
000020 cd 6e d7 bd dc fd bf 3c 52 0e 07 bd ff 2d b5 bc
       -0.105191804 0.02343648 -0.03297264 -0.02211666
000030 1a 63 00 be 2c 87 06 be 02 5e 6b bd 7f db 16 3d
       -0.12537804 -0.13137501 -0.0574627 0.03683042
000040 fc bf 4b 3d ef 23 cc 3d 60 9b b6 bd a8 76 4a bd
       0.049743637 0.09967791 -0.08916354 -0.049429566
000050 d1 18 b7 3d 4a d5 1c 3e 78 76 33 bc a0 39 e0 3d
       0.0894028 0.15315738 -0.010953538 0.10948491
000060 29 2a 63 bd 63 65 33 3c aa 23 0b 3e e9 2e d4 bd
       -0.05546013 0.010949465 0.13587824 -0.1036051
000070 4f b2 ba bd 01 49 bb bc 79 7a 0d bd 7e 57 0d 3e
       -0.09116041 -0.02286196 -0.034540627 0.13802907
000080 a9 7a 87 bd 9f a8 c3 bd 9b af 18 be e3 c0 00 be
       -0.066151924 -0.09553646 -0.14910738 -0.1257358
000090 17 3b d5 bd 9b f1 44 3e 9d e0 46 3d 70 d7 2c 3d
       -0.10411661 0.1923279 0.04855405 0.042197645
0000a0 4e fa 9a bc 7f 29 d8 bd ab a8 ae bc bd 3c 03 be
       -0.018918183 -0.1055479 -0.021320662 -0.12816139
0000b0 e4 06 dc bd 3c 96 b9 bd a2 60 e5 3d b3 8f a3 3d
       -0.10743502 -0.09061858 0.11200072 0.07986393
0000c0 89 e7 5b bd 4a 5c 29 39 6c 4f 30 3d 2c 4d 28 3e
       -0.053687606 0.00016151476 0.043044493 0.16435689
0000d0 ad 90 c8 3d 19 19 55 bb 4f b2 a2 3d f4 f0 fa bd
       0.0979322 -0.003251618 0.07944166 -0.122529894
0000e0 a1 bf b0 bd c4 20 42 be 26 41 b5 bd 9e 63 02 bd
       -0.086303 -0.18957812 -0.08850317 -0.031833284
0000f0 a2 a3 d7 3c 49 fc 72 3d 22 a9 b8 bd 3a 98 6a 3d
       0.026323143 0.05932263 -0.090166345 0.05727408
000100 c2 2d ae 3d 07 d0 b8 bd a5 e9 90 bd c1 26 47 bc
       0.08504821 -0.09024053 -0.07075814 -0.012155236
000110 09 cf 03 3e 72 79 1e 3e 1b 78 c5 bd f9 33 91 bd
       0.12871946 0.15476015 -0.09642049 -0.07089991
000120 cb d5 19 3d 12 db 0f 3e 59 b1 06 3e f7 0d 27 3e
       0.037557404 0.14048412 0.1315359 0.16313921
000130 f5 bc 5d 3b b4 cd ce bd 11 ec ca bc 9c 42 07 be
       0.003383455 -0.100978285 -0.024770768 -0.13209003
000140 e6 10 14 be 4a d4 3d 3e c6 d6 a2 3d 3a 4e 10 be
       -0.14459571 0.18538013 0.07951121 -0.14092341
000150 9e 6e 6b 3d ca 1e 96 bd a6 7f 8c bd a8 d6 0e bc
       0.05747854 -0.07330091 -0.068602845 -0.00871817
000160 0a e1 cb 3d 14 e6 96 bd 74 9f 87 3d a6 71 42 3d
       0.09955032 -0.07368103 0.0662221 0.047471665
000170 ab 2f f7 3d ba e6 6f 3d c9 fd 29 be b4 14 db bd
       0.12069639 0.058569647 -0.16600718 -0.10697308
000180 19 62 a2 3d e6 4c 79 3d 7c bd b1 bd f1 38 0e be
       0.07928867 0.06086435 -0.086787194 -0.13888909
000190 e3 26 09 3e 76 8d 18 3e 5a 69 87 bd d8 b0 45 bd
       0.1339374 0.14897713 -0.06611891 -0.048264354
0001a0 95 f0 3c be 9e 15 05 3c 4c 63 db bd 8b c1 02 be
       -0.1845115 0.00812283 -0.10712299 -0.12769143
0001b0 85 4c d3 3c 37 ec 49 3d 43 b0 6a bd 76 7e 55 3e
       0.025793323 0.049297538 -0.057297003 0.20849022
0001c0 72 d0 14 be 6c a8 c9 3d 22 49 5d 3d 77 42 82 be
       -0.1453264 0.09846577 0.054024823 -0.25441334
0001d0 a2 4f aa bc a2 0d 4f 3d 90 06 9e 3c e8 c6 1f 3c
       -0.020789925 0.05055011 0.019290239 0.009752013
0001e0 bf c6 a8 3d 21 7e 7d 3c 0f d9 3c bd 57 38 ad 3d
       0.08241033 0.015471966 -0.04610544 0.084580116
0001f0 f0 61 0d be c7 e3 84 bd ef bb 49 3d d0 5b e0 bd
       -0.13806891 -0.064887576 0.049251493 -0.10955012
000200 f0 0b 07 be e8 93 1c be c2 4f 8e be 16 70 ed 3c
       -0.13188148 -0.15290797 -0.27795225 0.02898411
000210 6d d8 dd bc 6f 50 4f bc 2a fb ba 3d 80 b3 01 3d
       -0.027080739 -0.012653454 0.09129937 0.031665325
000220 06 72 a9 3c ec 8f 9f 3d 77 98 3c 3c b8 81 9a 3d
       0.020684253 0.07791123 0.01151096 0.07544273
000230 79 1e c5 3d 34 e0 74 3d 92 03 33 3e 1c 98 03 3d
       0.09624953 0.05978413 0.1748183 0.032127485
000240 da c4 5c bd 08 ac dd bd 3b 6e 7c 3d 6c 06 02 bc
       -0.05389867 -0.10823828 0.06162856 -0.007936101
000250 ee 40 9d bd 51 58 30 be a0 57 1f be d0 c4 1d be
       -0.076784 -0.1722119 -0.1556077 -0.1540711
000260 72 36 35 bd ca 2e 59 3d bb 6d 97 3d d8 1e f9 bd
       -0.044241376 0.053023137 0.07393976 -0.12164086
000270 00 36 a5 3d 65 e3 81 3d d4 53 d2 bc fc 98 7e bd
       0.0806694 0.063422 -0.025674738 -0.062157616
000280 41 c1 a1 bd 3f 57 70 bd e1 23 f7 bd 26 1f 0b be
       -0.078981884 -0.058676954 -0.1206739 -0.13586101
000290 c3 d3 74 bd 4d 81 0a bc 94 21 cb bd 45 d4 96 3d
       -0.059772264 -0.008453679 -0.09918514 0.07364706
0002a0 ff 93 19 be d5 d0 64 bd a8 58 05 3e cc 8c 6f bd
       -0.14997862 -0.05586322 0.13022101 -0.058483884
0002b0 6d f9 15 3e 85 ed 7e 3d c6 ff 45 be 98 8c 88 3d
       0.1464593 0.062238235 -0.19335851 0.06667441
0002c0 2e 3c 8a ba 36 4b f4 3b d2 40 e2 3d c4 0d 0c be
       -0.0010546499 0.007455255 0.1104752 -0.13677126
0002d0 34 a3 3f 3c c2 7a 61 bd f3 80 6b 3e 45 6c 19 3d
       0.0116966255 -0.05504871 0.22998409 0.03745677
0002e0 d7 fb b6 3d 0c 13 17 3d 59 92 53 bd c5 3d 0b 3b
       0.089347534 0.0368834 -0.05165324 0.0021246534
0002f0 6b fa ec bd 73 6f da 3d 73 7c 26 3e 8a 91 8b 3d
       -0.11571201 0.106657885 0.16258411 0.06814869
000300 72 f7 f3 bd 5f 7f 07 bd e1 64 b8 be 8a b9 81 bd
       -0.11912431 -0.033080455 -0.36014464 -0.06334217
000310 74 93 b2 bd 41 54 46 3d 11 58 18 be a2 6c 8e bc
       -0.08719531 0.048420195 -0.14877345 -0.017385785
000320 2f 7e 44 bc 35 f8 c4 3d 9a 58 fb bd 6b c5 d7 bd
       -0.011992975 0.09617654 -0.12272759 -0.10535701
000330 29 44 8b bd 9a 26 28 3e 65 9b 8c bd 53 08 bd 3d
       -0.0680011 0.16420975 -0.06865577 0.09230103
000340 97 7f 0c 3d ac 41 7e bd b0 7d 90 bc 7b df 2a bd
       0.034301367 -0.06207435 -0.017638057 -0.041717034
000350 88 40 28 3d 4d 17 ce bc a6 d8 66 bd 0d 1c 6b 3d
       0.041077167 -0.025157595 -0.056358956 0.0573998
000360 68 a4 0f be ea fb e5 bd 91 6a af 3d 36 5b 99 be
       -0.1402756 -0.112296894 0.08565248 -0.299524
000370 30 c2 b3 3b c9 88 1e 3e 13 10 b4 3d e8 70 4f bb
       0.0054857954 0.15481867 0.087921284 -0.003165299
000380 17 9e c6 bd f3 56 ef 3d a9 70 eb bd 67 e8 a8 3c
       -0.09698122 0.11686506 -0.114960976 0.02061863
000390 8e e1 b3 bd 3d e3 16 3d 38 86 05 bc d2 6e 8d 3d
       -0.087832555 0.036837805 -0.008149676 0.06905903
0003a0 05 7a 8e 3d af aa 1b 3e 0a dd ac 3d 02 1f 73 bd
       0.06956867 0.1520183 0.08440597 -0.059355743
0003b0 ee b7 38 3d 9b bb bd bd 77 4d 85 bd c2 b6 bf 3d
       0.045097284 -0.092642985 -0.06508916 0.0936103
0003c0 c8 9a 99 3d 5b 00 28 3e f9 f8 f1 3b 52 6d cd 3c
       0.07500225 0.16406386 0.007384416 0.025076542
0003d0 bb 91 ba 3d a7 67 46 be 6e a3 41 3d 4e cd 2b be
       0.09109827 -0.19375478 0.047275 -0.16777536
0003e0 09 a9 6a 3d a2 90 69 bb 04 40 2a bd e5 61 18 3d
       0.05729011 -0.0035639186 -0.041564956 0.037202735
0003f0 63 7a 64 3e 9d f0 3c bd e0 d0 28 be f5 34 c0 bd
       0.22312312 -0.046127904 -0.1648593 -0.09385101

fc1.bias f4 [128]
000000 7b 11 43 3c e2 e0 54 3d b5 8e 89 bd f4 99 f1 bc
       0.011906023 0.051972277 -0.06716672 -0.029492356
000010 ce 80 1d bd be 12 a6 bd b2 7f 0b 3e df 30 1b 3e
       -0.038452916 -0.081090435 0.1362293 0.15155362
000020 62 2c 1b be 7d c5 f6 3d f2 eb a8 bd d3 39 38 bd
       -0.1515365 0.12049387 -0.08248128 -0.04497702
000030 f7 47 dc bc 9e 1b 61 3b fc ff ac bd fc 40 0c 3d
       -0.026889784 0.0034348737 -0.08447263 0.03424166
000040 a3 96 e8 3d 26 a2 51 bd 83 4c 38 bc f6 10 66 3d
       0.11356857 -0.051180027 -0.011248711 0.05616852
000050 66 0a 04 bd 01 22 74 3d ae a5 4b 3e e4 3a c5 bc
       -0.03223648 0.05960274 0.1988742 -0.024075933
000060 e4 80 6f 3d a4 4c 36 3e 1d 41 4e 3e 37 bf 64 bd
       0.05847253 0.17802674 0.20142026 -0.05584642
000070 f3 07 f6 bc f8 2c b1 bd 46 55 15 3e ef 28 11 3e
       -0.030033087 -0.08651155 0.1458331 0.14175771
000080 f1 2f 9a bd f0 56 88 3d 08 3d e6 3d da 4b 04 be
       -0.07528675 0.06657207 0.112421095 -0.1291956
000090 7b f9 00 3e f5 15 fe 3d 9b 24 6c 3c bf fb 8c 3d
       0.12595169 0.12406532 0.014413024 0.06883954
0000a0 f4 9d 95 3d 29 cd 3e 3e 2c bd 31 3e fb b3 56 3d
       0.07305518 0.1863295 0.1735732 0.052417737
0000b0 1f 7d 1c 3d 21 9a 67 bd 41 48 be 3d 8e 75 93 bd
       0.038205262 -0.056543473 0.09291125 -0.07200156
0000c0 d5 03 10 be 29 b4 20 3e 28 e0 0e 3d 46 20 4e 3d
       -0.14063962 0.15693726 0.03488174 0.050323747
0000d0 c4 7d a3 3d f6 d0 9e 3d 74 15 e7 3d 8f 6a 00 3e
       0.07982972 0.077547 0.11283389 0.12540649
0000e0 64 f9 e0 bd 94 8d 0b bc bb a4 46 3d d7 85 77 bd
       -0.109850675 -0.008517642 0.048496943 -0.060430374
0000f0 bb 05 07 be 4b 9a 90 3d 34 1d 16 3e 34 f2 5d bd
       -0.1318578 0.07060679 0.14659578 -0.05418606
000100 1b 84 11 3e 86 03 83 3d ba 60 d5 3d 60 1c 39 bd
       0.1421055 0.063971564 0.1041884 -0.045193076
000110 1f bf 12 be af 60 e8 bc 52 95 46 3d f6 c7 65 bd
       -0.1433072 -0.028366415 0.048482247 -0.0560989
000120 e4 f8 2c 3e 4a c5 0b be cf 68 a8 bd f9 15 22 bc
       0.16891819 -0.13649479 -0.08223116 -0.009892934
000130 22 7b 6c 3e 7c 08 b3 bd bc 19 de 3d 60 d5 a1 3d
       0.23093846 -0.08741853 0.10844752 0.07902026
000140 b7 6d c2 3c 28 67 01 3e f8 fc 12 3e a8 db 0b bd
       0.023733957 0.12637007 0.14354312 -0.034145027
000150 bb 84 1f 3c 4b b0 24 3e d0 af fa 3d bc 34 c3 bd
       0.009736235 0.16082875 0.12240565 -0.09531543
000160 89 0c e5 3c b3 b0 10 3e 8e c1 d3 3d 67 f2 7a bc
       0.027960079 0.14129905 0.10339652 -0.015316582
000170 0e ed a9 bd c5 a8 02 be 6a 8d bf bc f0 5e ac 3d
       -0.08297168 -0.12759693 -0.023382861 0.084165454
000180 3a f9 64 3b 2a 1b 2f be 37 4e b1 3b c2 4a 38 3e
       0.003493859 -0.17100206 0.0054109353 0.17997268
000190 92 10 d6 bd 61 35 1b be 96 7e 0e 3e 07 6c 1a 3e
       -0.10452379 -0.15157081 0.13915476 0.15080272
0001a0 b7 83 21 be f4 05 1c be 5b 85 5e bc 7d b0 3d 3e
       -0.15772901 -0.15236646 -0.013581599 0.18524356
0001b0 6f 09 f0 bd 23 3c 49 3d a3 c8 15 3e 0e 81 04 bd
       -0.11720549 0.049129616 0.14627318 -0.03234964
0001c0 aa b4 61 bd 72 3b 91 bd da e3 be 3c 6e 8d 32 3e
       -0.055103935 -0.070914164 0.023302007 0.17436764
0001d0 fc a7 ba 3d 5d 88 2b 3e 60 5b 34 3d c9 20 53 bd
       0.09114072 0.16751237 0.044032454 -0.05154494
0001e0 24 32 06 3d c3 c7 f1 3d 05 e7 36 bc 21 52 26 be
       0.03276266 0.1180568 -0.011163478 -0.16242267
0001f0 71 89 09 3b a7 74 eb 3d 8a 19 0d 3e b6 e1 5f 3c
       0.0020986462 0.11496859 0.13779274 0.0136646535

fc2.weight f4 [64, 128]
000000 df 4f 8c bd 8a c4 3d bd 0d 42 2c bd c5 f2 de 3d
       -0.06851172 -0.046330012 -0.04205518 0.10886148
000010 9a 79 8d 3d e3 9b c7 bc 1a c5 2b 3d d5 c2 7b 3d
       0.06907959 -0.024366325 0.041936018 0.061465103
000020 4b ab 37 3d f8 37 48 3d 89 36 b6 3d 70 04 86 bd
       0.044841092 0.0488815 0.088971205 -0.06543815
000030 b1 3c a4 3d 2f ca 15 bd e2 64 09 bd f1 7d fd 3c
       0.080193885 -0.03656977 -0.033543475 0.030943843
000040 c1 cc 65 3c 90 c8 dd bd e5 5f 70 bd 11 47 b1 bd
       0.014025868 -0.1082927 -0.058685202 -0.08656133
000050 30 27 a2 3d 93 7a 21 3d 79 06 5b bd db e2 d7 3c
       0.07917631 0.039423537 -0.05347297 0.02635329
000060 16 0e 3b bd 10 26 80 3b 18 e3 4f bc a7 a4 90 bd
       -0.04566773 0.0039107874 -0.012688421 -0.07062655
000070 d6 cc 33 be b5 c0 5d bc 7a c2 d5 bc 15 99 2b 3d
       -0.17558607 -0.0135347145 -0.02609371 0.041894037
000080 76 db d9 3d 26 31 20 bb 0d 91 1a 3c 20 76 21 bd
       0.10637562 -0.0024443357 0.009433997 -0.039419293
000090 e8 23 a5 3d e9 1f 2b 3c fd a9 d3 3d 3c d4 99 bd
       0.08063489 0.01044462 0.10335157 -0.075111836
0000a0 5d 2a a3 bd 3c 8e 27 bd 49 67 aa bd 99 63 04 3e
       -0.079670645 -0.04090713 -0.08320481 0.12928618
0000b0 86 bb fc 3c d6 54 76 bb 57 be 83 bb 4d 81 cf bd
       0.030851137 -0.0037587187 -0.004020493 -0.10132084
0000c0 70 f8 67 bd 7b 74 1f be e4 71 8a bd d3 cc 17 be
       -0.056633413 -0.15571778 -0.06760004 -0.14824228
0000d0 57 4d 9a bd 9c dc ac bd 0b f6 db 3c 2d 2a bd 3d
       -0.07534283 -0.084405154 0.02685072 0.0923656
0000e0 eb fe 18 3d de ba ef bd 4d d5 d3 3c 57 22 d4 3c
       0.037352484 -0.11705564 0.025858546 0.02589528
0000f0 24 b0 e0 3d b9 90 0d bd 43 3b a7 3d 70 ce 81 bd
       0.10971096 -0.034561846 0.081656 -0.06338203
000100 c6 49 71 3c f7 cb f1 3d ea bb 19 3d ef 0f aa bd
       0.014727062 0.11806481 0.037532724 -0.0830382
000110 46 9a d3 bc b6 c7 82 bc 56 b0 7e 3d 04 d9 94 3a
       -0.0258304 -0.01596437 0.062179886 0.001135618
000120 27 d2 84 3d b5 94 15 bd 79 c5 b8 3b 05 02 88 3d
       0.06485396 -0.03651877 0.005638775 0.0664101
000130 3e b3 da bc 56 15 55 bd 8c 06 ff 3d c3 82 aa 3d
       -0.026696797 -0.0520223 0.124524206 0.08325722
000140 e6 98 c1 3c e0 75 f9 3d 98 9a f1 3d 93 e9 ba bd
       0.023632478 0.12180686 0.117970645 -0.09126582
000150 42 58 14 bd 2a dd a3 bd 74 48 3d 3d 24 dd 82 3d
       -0.03621698 -0.08001168 0.046211675 0.063898355
000160 f2 2f 87 bd 6a 8e 80 3d c3 d1 39 bd d4 c1 8a bc
       -0.06600942 0.06277163 -0.04536606 -0.016938128
000170 f7 a1 1b bd 9a b3 0f bd 62 c0 8d 3d 88 71 4f be
       -0.03799626 -0.03508339 0.0692146 -0.20258152
000180 c4 01 36 bc b6 bb 18 3d 95 29 33 bd 05 38 14 bd
       -0.011108819 0.03728839 -0.043740828 -0.036186237
000190 c3 bb 1c 3e 21 7f ad bc 33 8d 14 bd 5d ae 15 bd
       0.15306 -0.021178784 -0.03626747 -0.03654324
0001a0 ed 44 fd bc f4 88 83 3c 92 5a e9 3c 64 a8 c7 bc
       -0.030916655 0.016056515 0.02848557 -0.024372287
0001b0 22 4d ca 3d 20 a6 a1 bd d8 0f db 3d b5 50 f9 bb
       0.09877993 -0.07893014 0.10696381 -0.007608498
0001c0 89 f5 a4 bb 8e 2f fa 3d e6 40 b2 bc 91 55 1e 3d
       -0.005034153 0.122161016 -0.021759462 0.03865582
0001d0 1e 01 27 3d 0b 39 fa bc bf 40 39 be 9a d2 df 3c
       0.04077255 -0.030544778 -0.18091105 0.027322102
0001e0 f8 31 a1 3d ee d8 70 bd 60 3e 4e 3c d7 3b f2 bc
       0.07870859 -0.05880063 0.012588114 -0.02956955
0001f0 47 e7 b9 bc a4 7b b4 bd 04 53 77 3d 21 64 8f 3b
       -0.02269329 -0.08812645 0.060381904 0.00437595
000200 96 1f 81 3d 74 e1 98 bb 84 ef de bc ca 2f dd bc
       0.06304853 -0.004665548 -0.02721382 -0.027000327
000210 12 54 92 bd e5 42 0b bd e2 b9 05 bb 9f df 9b bd
       -0.071449414 -0.033999342 -0.0020404984 -0.07611012
000220 84 3e a3 3d 80 e2 95 bd f6 50 11 bd bd 3b 5d 3b
       0.07970908 -0.07318592 -0.0354776 0.003375753
000230 1a 62 85 bd 27 15 d1 bc 48 be 3d bd 28 94 b1 bd
       -0.06512852 -0.025522782 -0.046324044 -0.08670837
000240 32 0c 1c 3b 3c ce a0 3d 29 fc c1 3b 17 d9 b7 3d
       0.002381098 0.07851836 0.0059199524 0.089769535
000250 20 27 00 bc 2f 16 57 bc 6a 59 77 3d 78 50 3b bd
       -0.007821828 -0.013127848 0.060388006 -0.045731038
000260 a0 d0 a3 bd f6 56 92 38 fb df 2c 3d 4b 0d 09 bd
       -0.079987764 6.97802e-05 0.042205792 -0.033459943
000270 b6 ed 52 3d 00 f3 84 bd bb f5 bc 3c 53 e2 dc bc
       0.05149623 -0.06491661 0.023066392 -0.026963389
000280 8e ce 01 bd 2d dc 76 bd 52 92 02 3d 52 84 1b bd
       -0.031691127 -0.06026857 0.031877823 -0.037967987
000290 25 50 8b 3d f3 10 ad 3c 59 81 68 bd e9 7d 79 bd
       0.06802396 0.021126246 -0.05676398 -0.060911093
0002a0 bf 71 79 bd 88 5e 37 3d d8 cd 2f bd 61 8d 28 bd
       -0.060899492 0.044767886 -0.042920917 -0.041150454
0002b0 c3 2e 02 bc 98 88 7b bd 54 8d 2f bd 5d af b1 3d
       -0.007945719 -0.061409563 -0.04285939 0.08676026
0002c0 96 f2 58 bd 68 4f 38 bd bb 76 3d 3d a4 89 bf 3c
       -0.052965723 -0.044997603 0.04625581 0.023381062
0002d0 66 62 83 3d a7 5a ef bc 49 e3 31 3d e3 3f e9 bc
       0.064152524 -0.029218031 0.043429647 -0.028472846
0002e0 c4 9b 6b bd a5 22 52 bd 18 84 ac bd 50 69 58 3d
       -0.057521597 -0.05130257 -0.084236324 0.05283481
0002f0 f6 92 cc bc 82 81 9a bd 2a 44 62 3d 2d a2 83 3d
       -0.02497242 -0.07544233 0.055240788 0.06427417
000300 d2 95 9c 3d 6b f0 bc 3d 86 02 77 3d d7 68 9b 3d
       0.076457635 0.092255436 0.06030514 0.07588356
000310 6d 1e b6 3d 1b 9a 78 3d cb a4 9d 3c 58 34 4e bb
       0.08892522 0.06069384 0.019243618 -0.0031464305
000320 b1 3f a2 3b b5 d5 07 bd 1d 39 3d 3d 95 38 ef bb
       0.0049514403 -0.03316279 0.046197046 -0.0073004463
000330 6c f2 bb 3c ee 40 88 bd 91 12 2f bd c0 3e 9e 3d
       0.022942744 -0.06653009 -0.042742316 0.07726812
000340 fe b9 a0 bb 8c a4 fe 3c 54 e5 ce bd 86 ad 3b bd
       -0.0049049845 0.031084321 -0.101023346 -0.04581978
000350 af fc 05 bd 78 2f 66 bc 22 b6 5b 3d 44 f3 ca bc
       -0.03271168 -0.014049403 0.053640492 -0.024774201
000360 ab a8 c3 3d 86 86 75 bc 73 ef 19 3d f6 4a 98 bd
       0.09553655 -0.014985686 0.037581872 -0.07436173
000370 65 35 90 3c bf 0c 9d bd c1 e0 61 bd af df 8d bd
       0.017603585 -0.07668447 -0.055145983 -0.0692743
000380 60 f4 cd 3c e7 1d 44 3c d3 b4 c8 3a 65 d7 0f bb
       0.025140941 0.01197002 0.0015312679 -0.0021948454
000390 97 81 ae 3d 30 de ba 3d d9 c5 87 3d 42 1a 9d 3d
       0.08520811 0.0912441 0.06629533 0.07671024
0003a0 57 cd c7 bb 46 0b be bc 1f f5 0a 3d 04 d4 40 3d
       -0.0060974765 -0.023198735 0.033925172 0.047077194
0003b0 8a 63 a2 bc 13 02 97 bd 66 6e 5a 3c 9f 50 1a bd
       -0.019822855 -0.073734425 0.013331985 -0.037674543
0003c0 6e 87 c4 bc a4 5f 20 3d 8f 16 89 3c 0f 9a 4d bd
       -0.02399036 0.03915371 0.01673439 -0.05019575
0003d0 58 4c 81 bd d3 0e b0 3d 3d 74 7a 3d d9 dc 6c bd
       -0.063133895 0.085965775 0.06114601 -0.057827804
0003e0 08 d5 db bb c7 13 0a 3c 57 73 2e 3d 7c ba 8e bd
       -0.006708745 0.008427567 0.042590465 -0.06969163
0003f0 8b a4 81 bc e2 30 d9 3c 24 98 f7 3c 8e f4 c8 3b
       -0.01582553 0.026512567 0.030223913 0.006132669

fc2.bias f4 [64]
000000 db 0b 24 bc df a6 77 bd b3 3f 9a 3d 5f 3b b1 bb
       -0.010012592 -0.060461875 0.07531681 -0.005408689
000010 eb 6e 95 3d c4 73 32 bd f8 46 f8 bc 7e e5 7a 3d
       0.072965465 -0.043567434 -0.030307278 0.061254017
000020 0f da 43 bd 18 80 b6 bd 71 6c e7 3a 66 f8 1c bb
       -0.04781538 -0.08911151 0.001765622 -0.0023951768
000030 ae aa 08 bd bc c0 57 bd d1 9c 69 3b 7d 10 55 bb
       -0.033365898 -0.05267404 0.0035646448 -0.0032511048
000040 12 51 e1 3c 3a 96 1b bd f8 0e 97 bd 72 3e 78 bd
       0.027504478 -0.037985064 -0.07375902 -0.060606427
000050 46 6f 3c bc 38 e4 89 3d 04 a9 af bc 7d b6 12 3d
       -0.011501139 0.067329824 -0.021442898 0.035818566
000060 ce 52 ce bb bf ba 8d 3d 73 e2 e3 3d 91 50 f5 3c
       -0.006296492 0.069203846 0.11127176 0.029945644
000070 ba 3f 18 bd 3c 09 1a bd af 0d 7b 3d 02 c8 a6 3d
       -0.03717015 -0.037606463 0.061292347 0.08143617
000080 36 93 a7 bd 74 33 88 3d 04 73 73 3d 23 cc 76 bd
       -0.08182375 0.06650439 0.05943586 -0.060253274
000090 d5 66 70 bc 79 01 f7 3c e1 f7 d5 3c a9 0f 09 3c
       -0.014672955 0.03015207 0.026119174 0.00836555
0000a0 71 bc b7 3c 3f b1 cd 3c 4c 60 d0 bc e8 5a aa bc
       0.022428723 0.025108932 -0.025436543 -0.0207953
0000b0 02 8d ef 3d c6 fd 26 3d f3 b1 21 bc 98 69 a0 bd
       0.11696817 0.04076936 -0.009869087 -0.078326404
0000c0 0a 92 3c bc 8e c5 63 bd 60 cb 8a bc 7e ca 83 bd
       -0.011509428 -0.055608325 -0.01694268 -0.06435107
0000d0 83 e4 81 bd 77 76 9f 3d 00 8a c6 3c 12 ff 5f 3d
       -0.06342413 0.07786267 0.024235725 0.054686613
0000e0 77 7f a6 3c c4 e1 a3 3d 63 fa 00 3e 05 8c e6 3a
       0.020324452 0.08002046 0.12595515 0.0017589336
0000f0 31 70 a5 3c 37 d4 7a bd fe b5 8f bd f8 7d 1e bd
       0.020195099 -0.06123754 -0.07017134 -0.038694352

fc3.weight f4 [4, 64]
000000 0e 78 6d 3e 2c 66 9f 3d b0 7f bf 3d da 9d 11 3e
       0.23190328 0.077831596 0.09350526 0.14220372
000010 87 6a d7 3c d0 23 cc bd 3c e1 79 3e b8 c8 28 bc
       0.026295913 -0.09967768 0.24402326 -0.010301761
000020 f0 09 01 bd c8 14 13 be 70 97 a1 3d 0a 96 0c 3e
       -0.031503618 -0.14363396 0.078902125 0.1372911
000030 07 84 b0 bd 82 4d cb 3d e5 6f b6 3d da c9 6a 3c
       -0.08618932 0.09926893 0.08908061 0.014330352
000040 f1 26 73 bd 6c fb c5 bd 90 90 31 bd b3 95 94 3d
       -0.05936331 -0.096670955 -0.043350756 0.07255115
000050 10 44 03 be 92 69 d1 3d 64 4b 2a 3e c8 72 4c 3c
       -0.12818933 0.10225214 0.16630322 0.012478538
000060 3a 35 d5 bd 65 ab 8b bd 1e 75 f1 3d 4d ba e7 3c
       -0.10410543 -0.068198 0.117899165 0.028287077
000070 58 10 2e bb ca e5 81 bd 7f d1 27 bd 3d 68 0f 3e
       -0.0026560035 -0.06342657 -0.040971275 0.14004607
000080 e6 7c 76 3d de 75 82 3d 4c 85 0e 3e 23 aa bf bd
       0.060177706 0.06370138 0.13918036 -0.09358623
000090 af e6 89 bd bf 1b 9e 3d e0 34 d3 bd f1 a1 36 3e
       -0.067334525 0.07720136 -0.103128195 0.17835213
0000a0 c2 6e 00 3e ca 37 9d bb e1 61 fc bd 55 7f 10 3e
       0.12542251 -0.0047979103 -0.123233564 0.14111073
0000b0 0b 9e 06 bb e8 f8 8a bb 1e 43 3d 3e bf c0 86 bd
       -0.0020540978 -0.0042410977 0.18482634 -0.06579732
0000c0 8a 9c 07 3e 3d 3d d9 3c 61 56 a4 bd 0b e4 b4 bc
       0.13243309 0.026518459 -0.08024288 -0.022081396
0000d0 f0 55 13 be 99 73 f9 3d 47 f9 bd 3d ed 97 3f 3d
       -0.14388251 0.12180252 0.092760615 0.046775747
0000e0 d8 16 d9 bd 2d 7a 91 3d 7a 3e dc 3d 8e 67 0e 3e
       -0.1060006 0.07103381 0.10754104 0.1390669
0000f0 95 71 c1 3d 40 10 a5 3d b0 9d 8c 3d 62 48 97 3d
       0.09445492 0.0805974 0.06866014 0.07386853
000100 b4 83 e8 3d 79 3f dc 3d 3e 28 01 3d 6d b9 be 3d
       0.113532454 0.10754294 0.03153252 0.09312711
000110 68 7c 8e 3d a2 74 33 3d 06 32 36 3d 2e db 09 bc
       0.06957322 0.0438124 0.0444813 -0.008414073
000120 08 39 b2 3c b2 52 de 3d cd 09 60 bd da 3b f3 3d
       0.02175571 0.10855617 -0.054696847 0.1187665
000130 39 32 bc 3d 02 53 5b 3d 10 2e a0 3d eb 2f cc bd
       0.09189267 0.05354596 0.07821286 -0.09970077
000140 90 20 76 bd ea cf 55 bd 2e 74 96 3d df 34 6b 3c
       -0.060089648 -0.052200235 0.07346378 0.014355867
000150 98 ee df bd 1c d5 dd bc e8 46 5f bd 5c a6 c4 bd
       -0.1093418 -0.027079158 -0.05451098 -0.09602043
000160 23 9e 93 bd d8 ce bb bd 98 fd e0 3d 4c ea de bc
       -0.072078966 -0.09170312 0.10985869 -0.02721133
000170 f9 c7 00 3e 6c 99 49 bd 59 2d 9e bd 27 70 29 bc
       0.12576284 -0.04921858 -0.07723493 -0.010341681
000180 51 4b 80 bd 28 13 bd bc e8 9b 03 bd 9f 38 2c bd
       -0.062643655 -0.023080423 -0.032131106 -0.042046186
000190 1e 65 c0 bd 41 71 a5 bc 97 a8 b6 bd c9 4c 1d 3d
       -0.093942866 -0.020195605 -0.08918875 0.038403306
0001a0 6a 2a d7 3d 70 78 ff bd fd 0e 40 bd 24 3f 05 3e
       0.10506137 -0.124741435 -0.046889294 0.13012367
0001b0 be d6 0a 3e f8 5d 93 bb 07 dd 19 3e ea 8d ba 3d
       0.1355848 -0.004497286 0.15025721 0.09109099
0001c0 02 f6 06 3e e1 09 c8 bc 12 cd 06 bb b5 cc 80 3c
       0.13179782 -0.024418773 -0.0020569009 0.015722612
0001d0 4f 1f 04 be d8 bc 1b 3e 03 f1 e7 3d ae 1c 09 3d
       -0.12902568 0.15208757 0.11325266 0.033474617
0001e0 7f 21 d5 3d 83 41 72 3d 01 4c d3 3d 99 39 77 3d
       0.104067795 0.059144508 0.10317231 0.060357664
0001f0 95 0b 02 3e 84 30 d3 3d 1b 0c d8 3d ed c9 27 3e
       0.1269973 0.10311988 0.10549184 0.16385622
000200 71 39 f5 3d 61 40 a9 bd d0 20 72 3d 29 ae 50 3e
       0.11973847 -0.082642324 0.059113324 0.20378937
000210 f9 ec f6 3d 3b 9d 37 3e 66 4d 1e 3c e1 fd 07 3e
       0.12056918 0.17931072 0.009662008 0.13280441
000220 01 5e 1c bc 7e 69 99 bd 0a d4 55 3d 7d 4b cc 3d
       -0.009543897 -0.07490824 0.05220417 0.09975336
000230 b1 55 14 be 90 63 24 bd f2 1b db 3d 62 48 82 bd
       -0.14485814 -0.040134013 0.106986895 -0.06361462
000240 4b 01 65 bd 56 46 1a bd 0d 5c 7b 3d 87 ba d2 bd
       -0.055909436 -0.037664734 0.061367083 -0.102894835
000250 37 ae de 3a bb de b4 3d b3 65 6f 3d 47 cb 81 bc
       0.0016989176 0.08831545 0.058446597 -0.015844
000260 b6 76 59 3d 3d 33 27 bd 2c 75 e5 3d 1c 7e af 3d
       0.053091727 -0.04082035 0.112039894 0.08568975
000270 be 1d 9d bd 96 f8 40 bd ca 5c d3 3d 9d 7c 97 3b
       -0.076716885 -0.04711207 0.103204325 0.0046230094
000280 4f 2b 0d bd 15 c8 11 3c ce e5 82 3d f2 ee 9c bd
       -0.03446513 0.008897801 0.06391488 -0.07662763
000290 47 28 ed 3b 47 c8 e0 3d 54 a8 2e bd 61 db 0c 3e
       0.0072374674 0.109757 -0.042641 0.13755561
0002a0 39 03 30 3e 2c 21 7a bd 95 65 c9 bd c7 7b 96 3c
       0.1718873 -0.06106679 -0.09833828 0.018369569
0002b0 ac b3 52 3d 8c fa 6c bc bd 9f 89 3b 54 78 c6 bd
       0.05144088 -0.014464032 0.0041999505 -0.096909195
0002c0 fd 35 22 3c eb d6 fc 3d 9a 1e b3 b9 46 bc 09 3e
       0.009900567 0.1234568 -0.0003416434 0.13450727
0002d0 3a dd cd bd 40 44 0c 3e 1f 8b 74 bd 86 48 e9 3d
       -0.10051961 0.1369791 -0.05970299 0.11390786
0002e0 6c ae 62 bc 88 d6 0e 3e c2 91 fd 3d 9d 72 1b bd
       -0.013835531 0.13949025 0.12381317 -0.0379511
0002f0 c9 97 9c 3d 46 d2 ee bb 83 ec c8 3d f0 92 3e bd
       0.07646138 -0.00728825 0.09810736 -0.04652685
000300 c8 f3 d4 3d fe 22 45 bd fb 10 e1 3d 2c 9b 30 3e
       0.1039806 -0.048129074 0.10989567 0.17246693
000310 38 68 68 3d db d1 b2 3c 29 e9 d5 bc 93 9b c0 bd
       0.056740016 0.021828583 -0.026112156 -0.094046734
000320 a5 51 de bd 27 72 bb bd 6e fa bd bd d2 3d d5 3d
       -0.10855416 -0.09152632 -0.09276281 0.10412182
000330 27 05 c7 bd a3 80 8a 3d fb 0d e5 3d 4e 11 00 3d
       -0.097177796 0.06762817 0.11184307 0.031266503
000340 56 7d 13 3d d5 ae a1 3d 9f 31 29 be 7c f6 24 3e
       0.0360082 0.07894675 -0.16522835 0.16109651
000350 06 4f c7 3d 81 f9 13 3e c5 60 23 bc 3b f1 97 3d
       0.097318694 0.14450647 -0.009971802 0.07419058
000360 c7 73 44 bd 8a 1b 56 bd d9 be 07 3e f1 80 52 3d
       -0.047961976 -0.052272357 0.13256396 0.0513925
000370 a8 3b a8 3d a2 3d e4 bc 7a 2b 82 bd 79 f4 07 3e
       0.082145035 -0.02786142 -0.06355949 0.13276853
000380 ef f3 eb bd 85 09 27 3e 72 d3 92 3d 34 45 2a bd
       -0.11521136 0.16312225 0.07169236 -0.041569903
000390 ae 55 ef bd 85 72 6d bd ba 94 de bd 76 7d 2f 3d
       -0.11686264 -0.057970542 -0.10868211 0.04284426
0003a0 f8 17 aa 3d d2 91 dd bd f6 42 5b bd 26 bf ca bd
       0.08305353 -0.10818829 -0.053530656 -0.0989974
0003b0 4a 9c f3 3d f1 c0 31 be b6 d0 7f 3d c4 03 d9 bc
       0.11895044 -0.17358758 0.0624549 -0.026491053
0003c0 1a 87 22 bd 9e 97 12 3e cd fd 39 3d c9 a9 71 3d
       -0.039679624 0.1431565 0.04540806 0.05899981
0003d0 66 4e ac 3c 60 94 ee bb 97 98 b4 3d 61 2d 07 3e
       0.021033477 -0.0072808713 0.08818167 0.13200904
0003e0 4b 66 da bc e2 e4 a5 3c d3 31 5b 3d 84 48 cb bd
       -0.026660105 0.020250741 0.053514313 -0.09925941
0003f0 12 5b 4a 3d 72 54 ac 3c 9d 80 9f bd 03 3d 14 3e
       0.049403258 0.02103636 -0.07788203 0.14476399

fc3.bias f4 [4]
000000 0b 64 82 bd f0 58 bd bc b4 ff cb 3d 7c 11 85 3d
       -0.06366738 -0.023113698 0.09960881 0.064974755
